models/task_2/0410-210805_-1.477_joint.pt (torch, 17638 bytes, 10 tensors)

input_layer.weight f4 [32, 2]
3.103277 1.8637403 0.8703279 1.7899826 -0.6198867 -1.0281777 -1.8506355 -1.2036866
1.4454235 -0.57895565 4.486692 0.83340454 2.733593 -0.93380797 2.9402413 0.22343206
0.06061508 0.9365866 -0.33046862 0.42410535 -1.2460002 -0.23949769 -0.8402583 1.4499618
-1.1931282 -2.442003 -0.9159091 -1.675467 0.15421124 -4.7802997 0.6014845 -2.2726798
0.89236873 -0.016798813 -1.7063669 1.0793388 1.4183952 2.268961 0.7523739 -1.1181452
0.17762066 0.05656629 0.13709165 0.86545104 2.118595 0.08917272 1.6793276 -0.3955352
-0.55277693 -0.5012891 -1.7275062 -0.18379314 -1.8534762 1.7698092 2.0144079 2.0644603
0.5457302 -0.22618349 1.2367007 -1.0882875 0.24860023 -2.5108006 2.0512958 -1.1392318
00000000: 179c 4640 0b8f ee3f cfcd 5e3f 261e e53f
00000010: e5b0 1ebf 549b 83bf a0e1 ecbf 6712 9abf
00000020: a303 b93f 7036 14bf fb92 8f40 005a 553f
00000030: 30f3 2e40 0a0e 6fbf ea2c 3c40 60cb 643e
00000040: 8547 783d 24c4 6f3f 2f33 a9be 5624 d93e
00000050: ef7c 9fbf e23e 75be 2b1b 57bf 5998 b93f
00000060: 6db8 98bf c749 1cc0 0579 6abf b475 d6bf
00000070: 8de9 1d3e 37f8 98c0 e3fa 193f 9673 11c0
00000080: 4772 643f aa9d 89bc 3b6a dabf c627 8a3f
00000090: f98d b53f a836 1140 939b 403f 621f 8fbf
000000a0: 31e2 353e 0eb2 673d c161 0c3e 338e 5d3f
000000b0: 0f97 0740 30a0 b63d 35f4 d63f 9783 cabe
000000c0: ca82 0dbf 7c54 00bf ec1e ddbf 4534 3cbe
000000d0: b53e edbf 1c89 e23f 0fec 0040 1e20 0440
000000e0: f9b4 0b3f a59c 67be 354c 9e3f 014d 8bbf
000000f0: 0f91 7e3e f5b0 20c0 6e48 0340 59d2 91bf

input_layer.bias f4 [32]
0.7012906 0.68003416 2.1733012 2.4069595 -1.3330201 0.3074201 -0.081179574 0.29393348
-0.045542408 2.761642 0.94914013 3.5692012 -0.29379708 2.3508985 -0.41555572 0.09848875
1.4939396 0.78039384 0.8051388 -1.2027323 1.2426118 -0.82469225 0.5438371 -1.0869253
0.45964158 -0.010360537 0.57729733 -7.535115 -3.4898098 1.7558042 -0.049164202 -1.0606053
00000000: c887 333f b816 2e3f 5e17 0b40 a00b 1a40
00000010: 67a0 aabf 2b66 9d3e 7a41 a6bd 737e 963e
00000020: ad8a 3abd bebe 3040 d9fa 723f cb6d 6440
00000030: 926c 96be 1f75 1640 b8c3 d4be 78b4 c93d
00000040: 6a39 bf3f e4c7 473f 941d 4e3f 22f3 99bf
00000050: e70d 9f3f 081f 53bf e838 0b3f 5e20 8bbf
00000060: 2456 eb3e 3ebf 29bc c2c9 133f a91f f1c0
00000070: 0b59 5fc0 31be e03f 6760 49bd eac1 87bf

hidden_layers.0.weight f4 [32, 32]
0.51549387 0.2646834 0.3545907 -0.30510983 -0.4074693 -0.1175003 0.5891575 0.22949383
0.5603286 -0.18247882 -0.5978105 -0.26895446 -0.6926724 0.03964898 -0.38719836 0.31786594
-0.068957806 -0.35966462 0.58508956 -0.23985592 0.34645185 0.21235687 0.28759181 -0.21810788
-0.38280347 -0.10588204 0.15197945 -0.0089370515 0.22659764 0.23127386 -0.5891671 -0.1766588
0.097570114 -0.64883435 -0.5202587 -0.6526056 -0.12516138 -0.12984078 -0.052780233 -0.5079826
-0.49120268 0.12142356 -0.7161573 -0.41933858 -0.39759654 -0.09178181 0.14536245 0.34361398
-0.016884504 -0.50623417 -0.39511064 0.4593302 -0.06767229 -1.7756828 -0.27173617 0.0312378
-0.021746082 -0.06199235 -0.051217496 0.56896925 -1.5672026 -0.28222013 0.26371515 -0.25301084
0.56546646 -1.3397859 0.5024739 0.049295384 -0.42380562 0.39849868 -0.30969182 -0.55911344
-0.36072862 -1.6921625 0.26799166 0.26752993 -0.14903516 -0.953685 0.41180003 -0.2347081
0.046419762 0.22198643 0.7340795 1.5178635 0.49894223 0.081327915 -0.045329027 -0.22264469
-0.18329567 -0.41246217 0.36754 0.24351315 1.2667664 0.0403588 0.07479 0.05742156
0.9949433 1.35633 -0.024951553 -1.1810807 0.31948647 -0.16049811 -0.45249343 0.4656956
0.8268075 -0.75389665 -0.57580817 -0.08906857 -0.63725245 -0.10087177 -2.0968947 -0.7495578
-0.02625402 0.33908635 1.300922 -0.88515264 0.32329124 1.1180155 0.050877623 0.25692827
-0.21756794 -0.051398605 0.58879197 0.11422421 1.0003563 -0.10507744 -0.78894025 -0.39134586
1.1521342 0.7115726 -0.47305998 0.34276554 0.055979446 0.49460694 0.02933696 -0.15981367
-0.019257767 -0.5030132 0.13008471 0.1506662 -1.265117 -0.9711473 -0.62547344 -0.90744233
0.20335656 0.82512903 1.3346509 0.40212485 -0.6971386 0.18248798 -0.17704476 0.98087084
-0.22270936 -0.7372462 0.59387505 0.6736828 0.019679869 -0.030029312 -0.5423773 -0.9114387
-0.65818906 0.53189147 0.21725366 -0.25171056 -0.09524954 -1.3034787 -1.2651111 -0.24184723
0.41063076 0.311806 0.39974883 0.09829775 -0.6158152 -0.4812292 -1.3840959 -1.0831687
-0.06149487 0.004567253 0.3067775 -0.29470152 -0.31523633 -0.05456336 -0.9144319 0.2431526
-0.14142911 0.7118052 -0.14722611 -0.5805445 0.05348837 -0.78098005 -1.3200506 -0.8844049
0.10597295 0.11194734 -0.25440338 0.06663037 0.30067423 -0.5105845 0.29748878 -0.3165901
0.26913315 0.254335 -0.026123114 0.6813093 -0.07476594 -0.12584145 0.12921792 -0.5404974
0.20496905 0.22566657 0.43248415 -0.23499255 -0.50350076 0.3318018 0.27681717 -0.50934374
-0.119750686 -0.22518419 -0.09169462 -0.59223557 -1.075722 -0.21245801 -1.1899089 0.4321095
0.21918853 -0.34659237 -0.5395801 -0.27098686 -0.3763088 -0.5382765 -0.31815597 -0.2694576
-0.19686154 0.53087604 0.0781666 0.32523736 0.21609282 0.06776759 -0.49085438 -0.2025498
-0.36795634 0.41535246 -0.24081987 0.26682812 -0.13553104 0.6224938 0.5336609 -0.110223725
-0.4126177 0.4129188 -0.12080733 -0.5895068 0.5136185 0.8381461 -0.25036055 -0.44935507
00000000: 68f7 033f 9584 873e ea8c b53e 5b37 9cbe
00000010: d19f d0be ffa3 f0bd 07d3 163f 6e00 6b3e
00000020: b271 0f3f badb 3abe 1c0a 19bf 66b4 89be
00000030: fa52 31bf f866 223d dd3e c6be 53bf a23e
00000040: c039 8dbd f625 b8be 6ec8 153f ca9c 75be
00000050: 2362 b13e 1474 593e 3c3f 933e ac57 5fbe
00000060: d1fe c3be afd8 d8bd 80a0 1b3e b66c 12bc
00000070: 3609 683e 0ed3 6c3e a8d3 16bf 0be6 34be
00000080: d7d2 c73d 021a 26bf ad2f 05bf 2911 27bf
00000090: 4e2a 00be fbf4 04be 1630 58bd 260b 02bf
000000a0: eb7e fbbe eaac f83d 1656 37bf 8cb3 d6be
000000b0: c691 cbbe 1af8 bbbd e5d9 143e 2cee af3e
000000c0: 5f51 8abc 9098 01bf f14b cabe 542d eb3e
000000d0: c597 8abd 9349 e3bf 0121 8bbe 6ae6 ff3c
000000e0: d724 b2bc b1eb 7dbd 70c9 51bd f8a7 113f
000000f0: 189a c8bf 287f 90be ac05 873e a38a 81be
00000100: 69c2 103f 1b7e abbf 21a2 003f f5e9 493d
00000110: 0dfd d8be 0508 cc3e ed8f 9ebe 0f22 0fbf
00000120: 6cb1 b8be c898 d8bf 3436 893e aff9 883e
00000130: ac9c 18be b324 74bf 74d7 d23e 5257 70be
00000140: a622 3e3d 6950 633e a2ec 3b3f 5a49 c23f
00000150: 5b75 ff3e 408f a63d eeaa 39bd f8fc 63be
00000160: dcb1 3bbe 3e2e d3be 342e bc3e 835b 793e
00000170: 6725 a23f 454f 253d 802b 993d df32 6b3d
00000180: 9bb4 7e3f 399c ad3f 3367 ccbc a72d 97bf
00000190: bb93 a33e 9e59 24be 38ad e7be a76f ee3e
000001a0: a8a9 533f 5fff 40bf 2a68 13bf 9569 b6bd
000001b0: fa22 23bf dc95 cebd 8633 06c0 05e3 3fbf
000001c0: ac12 d7bc ba9c ad3e 9d84 a63f 5d99 62bf
000001d0: 6e86 a53e 221b 8f3f 0e65 503d 1a8c 833e
000001e0: 21ca 5ebe 5887 52bd 12bb 163f 62ee e93d
000001f0: ad0b 803f d732 d7bd fdf7 49bf 7c5e c8be
00000200: 2279 933f 9f29 363f eb34 f2be f77e af3e
00000210: b44a 653d 1f3d fd3e 1054 f03c 32a6 23be
00000220: 77c2 9dbc 79c5 00bf ed34 053e 3e48 1a3e
00000230: 5bef a1bf 1c9d 78bf 071f 20bf 244e 68bf
00000240: b43c 503e a83b 533f d7d5 aa3f 4fe3 cd3e
00000250: ad77 32bf 21de 3a3e 394b 35be 5a1a 7b3f
00000260: ec0d 64be 2bbc 3cbf 3208 183f 7a76 2c3f
00000270: ad37 a13c 0800 f6bc 3dd9 0abf 0c54 69bf
00000280: 147f 28bf 0a2a 083f be77 5e3e 35e0 80be
00000290: 3112 c3bd 64d8 a6bf 29ef a1bf cda6 77be
000002a0: 323e d23e 09a5 9f3e e1ab cc3e 5550 c93d
000002b0: 11a6 1dbf ac63 f6be 0e2a b1bf 46a5 8abf
000002c0: 0be2 7bbd e5a8 953b f111 9d3e 1ee3 96be
000002d0: a866 a1be d47d 5fbd 3618 6abf fffc 783e
000002e0: cbd2 10be de38 363f 71c2 16be 909e 14bf
000002f0: 9f16 5b3d 4fee 47bf 6bf7 a8bf 5c68 62bf
00000300: 5908 d93d a644 e53d 2941 82be 8175 883d
00000310: f9f1 993e aab5 02bf 7350 983e 1918 a2be
00000320: d2cb 893e 3238 823e 2400 d6bc 496a 2e3f
00000330: e31e 99bd 95dc 00be b451 043e 0a5e 0abf
00000340: 68e3 513e 2315 673e 906e dd3e e3a1 70be
00000350: 6de5 00bf ede1 a93e fbba 8d3e 5a64 02bf
00000360: d93f f5bd af96 66be 64ca bbbd c09c 17bf
00000370: 42b1 89bf 988e 59be ef4e 98bf 753d dd3e
00000380: f572 603e 8e74 b1be ec21 0abf cabe 8abe
00000390: 8cab c0be 7dcc 09bf 57e5 a2be 59f6 89be
000003a0: 1296 49be 7ee7 073f cf15 a03d 8385 a63e
000003b0: 7047 5d3e bcc9 8a3d 4451 fbbe 3769 4fbe
000003c0: c664 bcbe 14a9 d43e 7c99 76be b29d 883e
000003d0: a6c8 0abe c15b 1f3f 009e 083f fabc e1bd
000003e0: a142 d3be 186a d33e d569 f7bd ebe9 16bf
000003f0: 817c 033f be90 563f 422f 80be de11 e6be

hidden_layers.0.bias f4 [32]
0.4920897 -0.6477344 0.10156796 0.117220394 0.016232207 -0.7756601 0.100815505 0.71883464
-0.24814104 -0.4887714 -0.38559753 -1.1470963 0.092481606 1.0681994 -1.7050511 0.8399614
0.11118301 0.49085322 -1.0884839 0.030943042 0.6016085 0.38067287 -0.15288901 1.5128003
-0.395606 0.0029661232 1.1859093 -0.37538028 -0.10345406 -0.19935498 -1.0053841 -1.1841536
00000000: 2ef3 fb3e ecd1 25bf dd02 d03d 3f11 f03d
00000010: 68f9 843c a991 46bf 5c78 ce3d 8c05 383f
00000020: af18 7ebe 3f40 fabe 0a6d c5be 0dd4 92bf
00000030: ff66 bd3d c2ba 883f 1d3f dabf b607 573f
00000040: ebb3 e33d 1d51 fb3e 7153 8bbf 437c fd3c
00000050: 0403 1a3f 8ee7 c23e f08e 1cbe 71a3 c13f
00000060: df8c cabe 4a63 423b e0cb 973f d831 c0be
00000070: b9df d3bd b623 4cbe 6db0 80bf 5892 97bf

hidden_layers.1.weight f4 [32, 32]
0.084655344 -0.62961423 -0.28306404 0.1385175 -0.39110765 -0.2133918 0.8880201 -0.022180935
-0.28172985 0.46760476 -0.14488827 -0.033843 -0.059093848 0.7430937 -0.8185836 0.8280978
-0.5305134 1.0214387 -0.19285348 0.26751065 -0.46820986 -0.46892872 0.041460786 -1.9761997
-0.6021421 0.56643385 -0.05473823 0.1442581 -0.26128867 0.54207903 -0.056172166 1.1489155
0.21463478 -0.16097568 -0.12573841 0.1986083 1.2534981 -0.58221936 0.26361567 -0.21100925
0.042295437 0.40202838 -0.93785614 -0.8974935 0.308722 -0.525172 0.6511879 0.48619708
0.67275983 1.5001596 -0.62476057 -0.12208689 0.9222666 0.78735363 0.21759593 -0.453666
-0.6706898 -0.25220928 -0.10121774 -0.57335603 0.4432933 0.45889637 -0.7112122 -0.000777424
0.1450877 -0.25300223 -0.20574443 0.2933014 0.55653054 0.047907643 -0.40909782 0.71771854
0.16587278 0.08185441 0.15229392 -1.1157659 0.23931353 0.48441234 -0.066992395 -0.45192188
-0.73624027 0.23803909 -0.1421971 0.20643088 -0.005448143 -0.32157877 0.3878931 0.46568972
0.8511708 -0.22137152 -0.042919006 -0.05921449 0.31585193 0.41916463 -0.6035115 -0.36716315
0.0683284 0.063875414 0.49143723 0.57970756 -0.41494033 -0.070420526 1.3396488 0.13784395
0.01934481 -1.4132262 -0.13637802 0.1387039 -0.24715014 0.14091016 -0.399433 0.5768065
-0.77410895 0.583596 -0.39802802 0.5370807 -0.29505372 0.21817741 0.5606313 -1.2418034
1.0791457 0.2758262 0.96194214 -0.78720516 0.07128004 0.6176285 -0.13944782 0.7578828
0.31406605 -1.2813317 -0.5682571 -1.2799985 -0.73207027 1.4578761 0.98809254 -0.14608102
0.9779164 -1.0187879 0.42648187 -0.13531527 0.026418868 -0.19848815 3.5431378 0.018438296
-0.054549 0.41794077 -0.17977808 -0.75169915 0.1079022 -1.1363499 0.7089913 0.8352432
0.17906332 -0.78782564 -0.07098075 0.15375052 -0.058612887 0.7926361 -0.9147382 -1.1940271
-0.55414623 -0.14649151 0.22054255 -0.92638206 -0.79737645 0.54256314 -0.20939681 0.6975204
0.61994106 0.6329977 0.64032066 -0.08460656 -0.6827663 0.68692786 -0.80510265 0.29548144
0.65639263 0.10205287 0.09634033 -0.2670579 0.2862995 -0.22803032 -0.0017533067 0.32427672
0.029932972 0.5856324 -1.9534305 0.8241014 0.118345894 0.071321316 0.34477326 0.6593926
0.03910623 -0.7189261 -0.10468492 -0.3270234 0.110946015 -0.058013313 0.5106229 -0.08548677
0.08569988 1.2699149 -0.03801161 0.7221093 0.8197532 -1.078472 0.6707081 0.29884347
-0.6078735 -0.4802101 -0.24696401 0.9068158 -0.27610123 0.011059439 -0.6584939 0.2941609
0.0831634 -0.24208751 0.78428704 -0.36441746 -0.018616868 -0.6178519 -0.15146063 -0.57677376
0.3145934 0.4956328 0.73553544 0.07815967 -0.8263504 0.0144934775 -1.1642357 0.09467308
-0.7241031 -0.22917199 -0.1934432 0.5961022 -0.63473517 -0.5432327 0.18746512 0.5788925
-1.071412 -0.46618402 -0.66310656 -1.5679712 0.6311939 0.22812587 -1.5010037 1.7122512
1.2213845 0.72034264 0.23993678 -0.4801694 0.21805379 -1.6910732 -0.33046648 -1.0422508
00000000: c85f ad3d 662e 21bf c5ed 90be 88d7 0d3e
00000010: 433f c8be 6183 5abe 4955 633f cbb4 b5bc
00000020: e53e 90be e469 ef3e 975d 14be f59e 0abd
00000030: 640c 72bd 643b 3e3f b28e 51bf 38fe 533f
00000040: bacf 07bf 81be 823f 627b 45be 28f7 883e
00000050: 34b9 efbe 6d17 f0be c9d2 293d 1df4 fcbf
00000060: fc25 1abf cf01 113f 3235 60bd 65b8 133e
00000070: a1c7 85be b1c5 0a3f c914 66bd aa0f 933f
00000080: 38c9 5b3e cfd6 24be 92c1 00be f95f 4b3e
00000090: a072 a03f 540c 15bf a2f8 863e cf12 58be
000000a0: fb3d 2d3d aad6 cd3e 5717 70bf 22c2 65bf
000000b0: cf10 9e3e ac71 06bf 40b4 263f d3ee f83e
000000c0: fd39 2c3f 3b05 c03f 4ff0 1fbf b108 fabd
000000d0: aa19 6c3f 0290 493f 78d1 5e3e e946 e8be
000000e0: 54b2 2bbf 9321 81be 3f4b cfbd 76c7 12bf
000000f0: 57f7 e23e 77f4 ea3e 0112 36bf 0bcc 4bba
00000100: df91 143e 8289 81be abae 52be 9a2b 963e
00000110: c978 0e3f ce3a 443d 4575 d1be 67bc 373f
00000120: 8eda 293e 49a3 a73d f0f2 1b3e 6bd1 8ebf
00000130: 9b0e 753e e504 f83e 4f33 89bd 4e62 e7be
00000140: 3e7a 3cbf 85c0 733e 1e9c 11be 9e62 533e
00000150: 5686 b2bb f9a5 a4be ed99 c63e e26e ee3e
00000160: 54e6 593f 37af 62be d7cb 2fbd e58a 72bd
00000170: 58b7 a13e bf9c d63e bb7f 1abf cffc bbbe
00000180: c3ef 8b3d 1dd1 823d a99d fb3e b767 143f
00000190: 0f73 d4be a338 90bd 9d79 ab3f f726 0d3e
000001a0: 0279 9e3c 99e4 b4bf aea6 0bbe 6508 0e3e
000001b0: ed14 7dbe c14a 103e 7b82 ccbe 97a9 133f
000001c0: 012c 46bf 8c66 153f 54ca cbbe 1f7e 093f
000001d0: 4811 97be e669 5f3e 8885 0f3f 6af3 9ebf
000001e0: 7221 8a3f 1739 8d3e d741 763f 4786 49bf
000001f0: 45fb 913d e71c 1e3f 69cb 0ebe 9b04 423f
00000200: 44cd a03e ad02 a4bf 4c79 11bf fed6 a3bf
00000210: f568 3bbf af9b ba3f a2f3 7c3f 4396 15be
00000220: bb58 7a3f a467 82bf d55b da3e 1690 0abe
00000230: 626c d83c 7a40 4bbe c5c2 6240 e90b 973c
00000240: c66e 5fbd 55fc d53e bf17 38be 5b6f 40bf
00000250: d4fb dc3d ea73 91bf 7480 353f 80d2 553f
00000260: 605c 373e f1ae 49bf 5b5e 91bd c770 1d3e
00000270: 1114 70bd 33ea 4a3f 482c 6abf e1d5 98bf
00000280: 87dc 0dbf df01 16be e8d5 613e 6027 6dbf
00000290: dd20 4cbf 6be5 0a3f 1e6c 56be b290 323f
000002a0: 75b4 1e3f 230c 223f 0eec 233f 3446 adbd
000002b0: c6c9 2ebf 81da 2f3f 351b 4ebf 5849 973e
000002c0: 5909 283f 1801 d13d 144e c53d d0bb 88be
000002d0: d995 923e c880 69be 36cf e5ba 9907 a63e
000002e0: fe35 f53c 01ec 153f 030a fabf 4ff8 523f
000002f0: 555f f23d e910 923d 1f86 b03e f4cd 283f
00000300: db2d 203d 8a0b 38bf 0c65 d6bd 9c6f a7be
00000310: aa37 e33d 5e9f 6dbd 2fb8 023f b013 afbd
00000320: 6b83 af3d 928c a23f 10b2 1bbd 28dc 383f
00000330: 59db 513f 5f0b 8abf 87b3 2b3f 0302 993e
00000340: 999d 1bbf 19de f5be 22e4 7cbe 1525 683f
00000350: 245d 8dbe a632 353c 0e93 28bf 429c 963e
00000360: 9351 aa3d cae5 77be 09c7 483f ed94 babe
00000370: 6782 98bc 8b2b 1ebf 7f18 1bbe 72a7 13bf
00000380: 6312 a13e 95c3 fd3e 0d4c 3c3f 2d12 a03d
00000390: b38b 53bf 0d76 6d3c ad05 95bf f6e3 c13d
000003a0: d25e 39bf 10ac 6abe f915 46be 279a 183f
000003b0: 017e 22bf 4c11 0bbf dbf6 3f3e 4d32 143f
000003c0: 0724 89bf acaf eebe 5ac1 29bf 48b3 c8bf
000003d0: ec95 213f d499 693e e420 c0bf 0c2b db3f
000003e0: 5456 9c3f 6068 383f fdb1 753e c3d8 f5be
000003f0: 7e49 5f3e 1675 d8bf e732 a9be 7968 85bf

hidden_layers.1.bias f4 [32]
-0.044586718 0.09166527 0.037195787 0.5735203 0.6486133 -0.19444613 0.23322707 0.42449948
0.060712446 -0.19601929 -0.34947178 -0.36679488 0.041021675 0.65425205 0.26492026 0.42430237
-0.16644727 -0.9330726 0.124082565 -0.09775344 0.11312434 0.75673264 0.6362133 -0.435895
0.37460905 0.16406162 0.05703329 -0.36618152 0.68577206 0.28336415 -0.96749604 0.11702783
00000000: 90a0 36bd 00bb bb3d 9c5a 183d 3ad2 123f
00000010: 850b 263f e31c 47be 14d3 6e3e ff57 d93e
00000020: 9dad 783d 48b9 48be f7ed b2be 8acc bbbe
00000030: 5806 283d 107d 273f a1a3 873e 293e d93e
00000040: 2771 2abe d9dd 6ebf 001f fe3d f532 c8bd
00000050: bcad e73d 3bb9 413f e0de 223f a12d dfbe
00000060: c2cc bf3e c5ff 273e bd9b 693d 257c bbbe
00000070: c28e 2f3f 1b15 913e d2ad 77bf 49ac ef3d

hidden_layers.2.weight f4 [32, 32]
0.44705316 -0.039796863 1.076883 0.97597015 -0.86293244 0.08727301 0.050992 0.6121125
0.46780118 0.483714 2.503045 0.36891502 0.6375089 2.3921146 0.30990642 0.23118305
3.1661806 0.42952478 0.51837 -0.0024601317 -1.1636779 0.76551884 -0.2138198 -0.1669789
0.55142546 -0.074480176 0.51519257 -0.4272486 0.323595 0.07508681 1.1882589 0.77210027
0.07765275 0.6905776 0.08836513 -0.33084652 -0.04488998 0.028349258 -0.9381399 -0.44069207
-0.7303892 0.31608978 0.12428374 -0.21553652 0.59493977 1.2137121 -2.0634077 0.08982029
-1.1607094 -1.4019717 0.72660285 0.20460606 -0.033086844 -1.1842364 -0.030951628 -0.19479722
0.54139507 -0.29183328 0.30962315 -0.42566 -0.7647878 -0.012503459 1.4486802 -0.18506205
0.47531593 -0.13371882 -0.66405475 0.55816686 -0.71606153 -0.10338512 0.6326536 -0.23611383
-0.26387602 -0.75189525 -0.8648306 -0.10361852 -0.0731841 -2.7968953 0.33025476 -0.10993732
-3.1792603 -0.48838624 -0.303456 -0.7145928 2.7390625 -0.71904534 0.3275043 0.75220776
1.2766156 -0.40911084 -0.20085903 -0.78036636 -0.10913272 0.14610748 -0.8757216 0.33216342
-0.24971049 0.07917851 -0.30539554 0.44021404 0.21819942 0.04083443 -0.119778626 0.56665474
-0.24941847 -0.23611145 0.19936557 0.569164 0.7380971 -0.24045429 -0.12669337 0.18965742
-0.30731267 0.15701444 0.30277902 -0.105709486 0.18623324 -0.5288882 -0.38653347 -0.48517972
0.4130195 -0.46794626 -0.040922772 -0.83304834 0.39686513 0.55331826 -0.04885562 -0.95206004
0.117982656 -0.35663304 -0.005717599 0.51762515 0.100769505 -0.35366783 -0.15647033 -1.0237525
-0.7368426 0.7433674 -0.26659906 1.3150879 -0.046637785 -0.7929354 0.62754613 -0.046046574
-0.560867 -0.59445477 -0.07736264 0.5278406 0.10514995 0.2863301 0.13413404 -1.6078696
0.6739169 -0.24451272 0.34722984 -0.1697268 1.4709723 0.36626926 0.27475348 0.8591414
0.16651584 0.80196345 -0.92343336 -0.8548477 -0.20880699 -0.3987484 -0.39124537 -0.6273844
-1.534184 0.50852436 -1.9112589 -0.14973734 0.10211673 -0.53556985 -0.11074219 -1.262927
-1.5639305 -0.05545548 1.0327623 -0.079951376 0.569434 -1.0377859 1.1598973 0.9326032
-0.12743561 -0.2488574 -0.15776321 -0.3191077 -0.2937627 0.13508186 -0.6915884 0.0064806696
0.04877182 -0.58813685 -0.4877521 0.024161292 0.52894914 0.68579733 0.9033303 0.25001296
0.84597105 0.17163016 0.090515345 -0.95188224 -0.7189713 -0.9715681 -0.5174957 -0.009079943
-2.0833902 0.8320213 0.13185754 -0.24133931 0.77068996 0.6436029 0.44395798 0.46223414
-1.2438709 -0.778075 -0.2100951 0.25997522 -0.9131578 0.46362177 1.5407318 0.00014266206
1.1309396 0.13063127 0.79086655 -0.753498 0.044160172 0.002745844 -0.94907343 0.2422359
-0.17475778 0.68218887 0.47193792 -0.8972311 -0.26687747 0.5219019 -1.160625 0.026292814
-1.2815622 0.53306264 -0.14434615 0.13810335 -1.2705606 -0.46618593 0.37331748 0.089369275
-0.28614676 -0.8653 -0.10353744 -0.90993065 -0.17684849 0.97128916 0.17068829 0.9573997
00000000: 27e4 e43e 0902 23bd 4dd7 893f 2ed9 793f
00000010: 24e9 5cbf 31bc b23d fddc 503d 68b3 1c3f
00000020: a383 ef3e 5da9 f73e e431 2040 6ee2 bc3e
00000030: c933 233f 6818 1940 0eac 9e3e 40bb 6c3e
00000040: b4a2 4a40 acea db3e e5b3 043f 293a 21bb
00000050: 66f3 94bf 0bf9 433f 94f3 5abe 84fc 2abe
00000060: 382a 0d3f 1089 98bd a9e3 033f 54c0 dabe
00000070: 3eae a53e 1dc7 993d de18 983f 5da8 453f
00000080: 6808 9f3d b2c9 303f c7f8 b43d b764 a9be
00000090: 8ede 37bd b43c e83c f029 70bf 64a2 e1be
000000a0: c9fa 3abf 85d6 a13e 7988 fe3d 9bb5 5cbe
000000b0: f94d 183f eb5a 9b3f df0e 04c0 b3f3 b73d
000000c0: 2092 94bf cf73 b3bf a502 3a3f 4084 513e
000000d0: 1286 07bd 0f95 97bf 458e fdbc ec78 47be
000000e0: de98 0a3f 2c6b 95be ed86 9e3e 1cf0 d9be
000000f0: 22c9 43bf 4fdb 4cbc 5a6e b93f e880 3dbe
00000100: 9c5c f33e 96ed 08be 7eff 29bf 06e4 0e3f
00000110: cf4f 37bf 94bb d3bd 96f5 213f d3c7 71be
00000120: c21a 87be 357c 40bf 8a65 5dbf f235 d4bd
00000130: 8ce1 95bd 5500 33c0 2717 a93e d126 e1bd
00000140: 0079 4bc0 c30d fabe 965e 9bbe 8eef 36bf
00000150: cd4c 2f40 5b13 38bf a5ae a73e b090 403f
00000160: 2468 a33f fa76 d1be fdad 4dbe 17c6 47bf
00000170: fa80 dfbd 339d 153e 4a2f 60bf 5311 aa3e
00000180: 1bb4 7fbe 5828 a23d ce5c 9cbe bc63 e13e
00000190: ab6f 5f3e 0142 273d 7f4e f5bd 4910 113f
000001a0: 8e67 7fbe 33c7 71be 7d26 4c3e bbb4 113f
000001b0: eef3 3c3f a639 76be e8bb 01be 8e35 423e
000001c0: 1658 9dbe 65c8 203e da05 9b3e 377e d8bd
000001d0: edb3 3e3e 3865 07bf b7e7 c5be 7a69 f8be
000001e0: 4b77 d33e a796 efbe a39e 27bd a842 55bf
000001f0: e831 cb3e 44a6 0d3f d51c 48bd 35ba 73bf
00000200: e4a0 f13d 9b98 b6be b25a bbbb 1583 043f
00000210: 3e60 ce3d f313 b5be c239 20be 520a 83bf
00000220: b7a1 3cbf 534d 3e3f ac7f 88be cd54 a83f
00000230: 4307 3fbd d0fd 4abf dda6 203f 559b 3cbd
00000240: fb94 0fbf 302e 18bf 4e70 9ebd 9020 073f
00000250: db58 d73d dc99 923e 6f5a 093e acce cdbf
00000260: d185 2c3f 8b61 7abe 1cc8 b13e ddcc 2dbe
00000270: d248 bc3f a587 bb3e 7dac 8c3e b1f0 5b3f
00000280: 2183 2a3e 7a4d 4d3f 2166 6cbf 4dd7 5abf
00000290: 80d1 55be c028 ccbe 5051 c8be 449c 20bf
000002a0: 2460 c4bf a72e 023f 22a4 f4bf bf54 19be
000002b0: 9322 d13d 1b1b 09bf cdcc e2bd 98a7 a1bf
000002c0: e02e c8bf 4925 63bd 8e31 843f 8cbd a3bd
000002d0: 6dc6 113f 2bd6 84bf 8477 943f 15bf 6e3f
000002e0: 7b7e 02be 79d4 7ebe ae8c 21be 1662 a3be
000002f0: 1168 96be e652 0a3e f00b 31bf cc5b d43b
00000300: f6c4 473d 2390 16bf a5ba f9be e7ed c53c
00000310: 3669 073f 6a90 2f3f a840 673f b301 803e
00000320: 8f91 583f d1bf 2f3e 1c60 b93d 8eae 73bf
00000330: 810e 38bf b0b8 78bf 997a 04bf 0bc4 14bc
00000340: 4456 05c0 59ff 543f aa05 073e a721 77be
00000350: f04b 453f 29c3 243f 764e e33e f4a9 ec3e
00000360: 2937 9fbf ec2f 47bf 2b23 57be 791b 853e
00000370: b6c4 69bf d55f ed3e b336 c53f 8e97 1539
00000380: a1c2 903f 34c4 053e 3b76 4a3f 3fe5 40bf
00000390: 4ce1 343d 9ef3 333b 7af6 72bf b00c 783e
000003a0: b4f3 32be eea3 2e3f d9a1 f13e f0b0 65bf
000003b0: 2aa4 88be 5d9b 053f 5c8f 94bf 0764 d73c
000003c0: 3b0a a4bf cb76 083f 7acf 13be f76a 0d3e
000003d0: bba1 a2bf ecaf eebe 7823 bf3e 3d07 b73d
000003e0: d481 92be 4d84 5dbf 700b d4bd 37f1 68bf
000003f0: c517 35be 68a6 783f e9c8 2e3e 2618 753f

hidden_layers.2.bias f4 [32]
0.6286703 0.0028853673 0.4727177 0.7406389 0.32356265 -0.58995825 -0.22815284 -0.31225306
0.32920548 0.09935931 0.6210476 0.5210316 -0.118333705 -0.39656976 -0.20747235 -0.13575031
0.9648625 0.15322937 0.19119252 -0.32854378 -0.15446554 -0.044674408 0.14767405 0.63865805
-0.67766213 -0.21011163 0.06444464 0.7512539 0.4793228 0.1692438 -0.11561597 -0.6772236
00000000: 89f0 203f 6e18 3d3b 0e08 f23e 839a 3d3f
00000010: 01aa a53e 8107 17bf e6a0 69be a2df 9fbe
00000020: 9f8d a83e e57c cb3d fafc 1e3f 5462 053f
00000030: f158 f2bd 310b cbbe a273 54be 2102 0bbe
00000040: 3b01 773f 29e8 1c3e f9c7 433e e436 a8be
00000050: 372c 1ebe 83fc 36bd de37 173e 187f 233f
00000060: 447b 2dbf 8127 57be 8dfb 833d 2d52 403f
00000070: cc69 f53e 3f4e 2d3e 11c8 ecbd 875e 2dbf

output_layer.weight f4 [2, 32]
0.062333614 0.48238268 0.05976057 -0.08625458 -0.8524386 -0.09201859 -1.0510441 -0.6383016
0.41234952 0.5370179 1.8351009 -3.7781644 -0.6768067 -0.8426062 -0.37250355 -0.3172485
-0.7312866 0.79427755 -0.041909963 0.50776505 -0.3954813 0.102832526 0.15300421 -0.28930715
-0.421442 0.19553319 -0.49478963 1.2652749 0.32855114 1.3936552 -1.614802 -0.8790556
6.5428624 -0.5153397 7.180621 0.64177895 0.7729613 -6.0624356 -2.7627883 0.4652266
-0.035742138 -0.8526874 -0.116388395 -1.9531783 -1.0156271 -0.22529435 0.5820821 -4.0676928
1.4064403 -3.049171 3.322259 0.27526075 0.39745653 -0.017583068 0.14777963 7.725279
-0.9511263 0.51866895 -1.3062574 -1.4408174 1.4350119 1.0352654 -0.6560287 0.5616779
00000000: 8851 7f3d ddfa f63e 80c7 743d 3ea6 b0bd
00000010: 6b39 5abf 3e74 bcbd 9d88 86bf bc67 23bf
00000020: 7a1f d33e 017a 093f 96e4 ea3f 72cd 71c0
00000030: 3443 2dbf 0ab5 57bf c9b8 bebe 656e a2be
00000040: 9935 3bbf c655 4b3f c8a9 2bbd e4fc 013f
00000050: 867c cabe dc99 d23d 23ad 1c3e 1120 94be
00000060: 3fc7 d7be da39 483e 1155 fdbe 87f4 a13f
00000070: db37 a83e 4b63 b23f d5b1 cebf ca09 61bf
00000080: 215f d140 4ded 03bf a6c7 e540 a04b 243f
00000090: cbe0 453f 79ff c1c0 86d1 30c0 2e32 ee3e
000000a0: 5966 12bd b949 5abf 0a5d eebd bf01 fabf
000000b0: 1200 82bf 90b3 66be 5503 153f 8a2a 82c0
000000c0: 3c06 b43f 9e25 43c0 e49f 5440 faee 8c3e
000000d0: 6c7f cb3e 5e0a 90bc 8b53 173e 7c35 f740
000000e0: 037d 73bf 7dc7 043f 7133 a7bf b46c b8bf
000000f0: 78ae b73f 9483 843f 7ff1 27bf 1fca 0f3f

output_layer.bias f4 [2]
0.26391536 1.219296
00000000: ea1f 873e e411 9c3f
