models/task_2/0410-230447_-1.7_joint.pt (torch, 17610 bytes, 10 tensors)

input_layer.weight f4 [32, 2]
00000000: d5a7 513f 978a d93f 5dc8 cebe 1a9a 0c40
00000010: ece0 08bf a576 eb3f 2523 82c0 d1aa aebf
00000020: cb7d ee3f 3828 40bf 9fff 8d3f 36c1 2ebe
00000030: 16fa 2840 13d1 b93e dfba e53f 57dd fe3e
00000040: 9506 923f 2091 a53e c93e 06bf 7de3 3abf
00000050: 8892 f8bf 62fe 75bf 69fe cebf 738f 463f
00000060: 9f09 f43f 7d2d c8be 6d96 a33c d395 80bf
00000070: 2da0 9b3f 4929 06bf 193d 6540 758b 9fbf
00000080: 15ce ae3f ddbd debe 0205 46bf 6610 e7bf
00000090: c042 ab3f b0f3 f53f 8bbd 59be 14f4 82bf
000000a0: fe2d 883f 1a8c f23c 7104 c33f f50b 2f40
000000b0: 6fe8 893f 1f91 6d3f 1ccb d93f f292 ad3e
000000c0: 3bb6 8a3f d36a c93f ce67 21c0 31ec 893c
000000d0: b6d8 adbf 6271 6c3f d6e3 9c3f 1698 773d
000000e0: 062c 9d3e 4668 34bf dd32 353f ac21 d0be
000000f0: f40d bdbf aa16 97c0 50d0 7bbf 04c0 933f
0.81896716 1.6995419 -0.4038724 2.1969056 -0.53468204 1.8395582 -4.06679 -1.3645879
1.8632139 -0.7506137 1.1093634 -0.17065892 2.640264 0.36292323 1.7947654 0.49778244
1.1408259 0.32337284 -0.5243955 -0.7300337 -1.9419718 -0.9609128 -1.617139 0.77562636
1.9065436 -0.39097205 0.01996919 -1.0045723 1.2158257 -0.52406746 3.581854 -1.2464434
1.3656641 -0.4350423 -0.7735139 -1.805188 1.3379745 1.9214993 -0.21263711 -1.0230737
1.0639036 0.029607821 1.523573 2.7351048 1.0774058 0.9279956 1.7015109 0.33901173
1.0836862 1.5735725 -2.5219607 0.016836258 -1.358176 0.9236051 1.225703 0.060447775
0.3069765 -0.7047161 0.70780736 -0.4065069 -1.4769883 -4.7215166 -0.98364735 1.1542974

input_layer.bias f4 [32]
00000000: ab2f 54c0 55ff c83f bef8 dfbd 096b 7dbd
00000010: 5469 7bbf 57e7 f0be 2174 803d fddf d9bd
00000020: 1d48 11bf 66f7 7f40 7832 9ebd bf38 8e40
00000030: 24af f83e 5e2a cb3f 329d a5c0 181e 043f
00000040: bc2e a4be 4a20 2a40 d93b 4e3e 4784 4d3f
00000050: 2ab9 43c0 8ec0 fdbd 25a1 b03f c20f 453f
00000060: 4a89 393e bf7c 1340 f384 f43e 8a05 f83f
00000070: 141e ad3d bf0f 973f 549b 5ebe 1de7 583f
-3.3154094 1.5702921 -0.10936116 -0.061869655 -0.9820759 -0.47051498 0.0627215 -0.106384255
-0.5675066 3.999475 -0.0772447 4.444427 0.48571122 1.5872304 -5.175439 0.5160842
-0.32066905 2.6582208 0.20140018 0.80279964 -3.0581765 -0.123902425 1.3799177 0.7697717
0.18118778 2.304489 0.47757682 1.937669 0.084530026 1.180168 -0.2173894 0.8472765

hidden_layers.0.weight f4 [32, 32]
00000000: 4800 103f 36da 3a3f f86c eb3e 1688 1c3e
00000010: abbf 2abf 8568 8ebe 26f8 043f 65f5 b03d
00000020: 14a8 063f d0bb e6be d077 dcbe 2dc0 9dbc
00000030: a3d7 e7be 546a 0f3e a136 b1be 87cf 253e
00000040: c3f5 17be 9abd c3bd 28cb d93e 92a9 bcbe
00000050: 7398 583f 80a6 f6bc b2c9 0e3e 7d98 bdbe
00000060: 8289 babe eccf d4bd 6efd 883d 4f72 983a
00000070: 7d13 c63e 3116 863d f076 0ebf fc58 56bf
00000080: 3f73 ab40 768e 5dc0 2417 31bf caab 1bbf
00000090: bf70 cebd ffcb c53d de2d b5bd 7870 ac3e
000000a0: 0c40 ee3d 7b9f 7ebf ccf2 04bf 3487 3a3f
000000b0: 636a ddbe bdb1 1b3e 2cb8 7d40 9ba3 013e
000000c0: c86e b83d 2425 3ac0 7d40 0cbc afeb 173f
000000d0: f83a 2e3f b319 d8be d82d 96be 39d1 a5be
000000e0: 5b60 033f 0c36 93be 6e5e 9abd 1f8a a2be
000000f0: 1459 293c 371a 99be 714b 61bf 37da fe3d
00000100: 7755 3740 592d babf 5f79 383f 1473 50be
00000110: a78d 5cbe 9ad6 3d3f 345d 8a3e b2cf 023f
00000120: 3799 d23d 5591 c2bf 32de 9abe f044 a3c0
00000130: 30aa f0bd 5435 4dbf 382b 4e40 8463 24be
00000140: 3597 923e 457d 07c0 1a0f 673f 4d2c 8b3f
00000150: 4310 4240 441b a63d 23f0 db3e 2bf7 153e
00000160: f2da 113f c778 62bf 020a bd3e 461f 0f3d
00000170: 741a 803f a9ea 0e3f 0396 83be 6776 d4bd
00000180: 6a91 b53f 386b bb3f d8f4 ed3f f3dc dabf
00000190: 116b 16bf 4731 473e 1736 fa3e b658 393f
000001a0: 4f36 043f 193a aebf 79d8 72bf 58bb 353f
000001b0: 750c f4be 925d 8cbf 4712 e5bf 3bb7 6cbf
000001c0: 5cd9 9ebe 1ae9 363f 197a ea3f feee 0ec0
000001d0: e4b5 92be 234b 0f40 ca3e 143e b9ba f43d
000001e0: db24 833f e88e 023e 54e9 b03f 1eda 493d
000001f0: 9e61 4cbf 99d9 1ebf 0fa7 3ec0 67b0 623e
00000200: 4d98 d9be d7db a53e 643b 3f3f 0da6 7d3f
00000210: 3f20 cdbe 7e76 043e 6545 8e3e 967b 0ebe
00000220: e267 72be 1db7 213f 596e c33e 4a25 d03e
00000230: 5649 20bf d353 c3bf 238b c1bf 4d9d 84bf
00000240: 03c1 84bc 3017 31be 2538 2d3f 91eb 5cbe
00000250: 4f08 963e 0fa0 ef3e eb42 9abd 17f0 fc3e
00000260: c029 26be 5f9b 3ebf ef46 263f 585c 53bd
00000270: ec48 20bf 3854 35be a7d8 40bf 048d 79bf
00000280: d701 f0be d933 7c3e 8db2 a63e cc55 e83e
00000290: 3dfa e2be 4a70 71bf 38f8 41bf 5e5f 633e
000002a0: 890a 06be f841 e23e d70f 303f 50b5 8e3b
000002b0: 7318 433e c85f 82be 10ed 83be 7f16 0ebf
000002c0: e91f 7abe 4cca b4be cda8 05bf 8bf5 29be
000002d0: 96e1 aebd 92da 57bf 51d0 13bf 9506 a0be
000002e0: 0262 8cbe d500 1f3f 0761 99bd 4cd4 40bf
000002f0: 8fe2 9fbe 5cd1 d3be 75ac 673e c298 0cbf
00000300: c763 09be dc5e 923f f1e9 50bf 377d 8a3e
00000310: 9da7 d8be 4f9e 53be fee5 143f e219 1ebd
00000320: e106 bc3e 1823 b43f dc9d dbbd 38f7 babe
00000330: 283a 7d3d 80b8 f3bf 5753 c33f b86f 1fbf
00000340: 814a 893e 564b 883f 4867 5f3f 7706 81bf
00000350: 6393 c13d 60fa da3e a9f3 663e 2ba3 0ebf
00000360: c4fa b63e 0da9 6b3d 76d8 e83e a9a4 76be
00000370: fafa aabc ebbb 00bf 85ef 0fc0 4888 c33f
00000380: 4675 9abf fc48 9c3f 614b d2bd 6ed4 8c3e
00000390: d143 27c0 e36a bfbf 8972 60bf 9ebc b0bf
000003a0: dd97 b1bf 5ef9 fc3e 9234 6d3d 02fe e43e
000003b0: 1dc3 91bd 5b75 8d3f 8112 1bbf 176c d0bf
000003c0: 669b b9bf 4bd3 ce3f 4619 f9be f094 df3e
000003d0: 613f 94bf 2cad 13bd 66a8 183f 6f49 0f3d
000003e0: aab6 83be ef3e 6d40 183a 1340 9fe8 5b3d
000003f0: f06c c0bd 1bc7 4d3e ef04 2cbf c34e 0a3f
0.5625043 0.72989213 0.45981574 0.15286288 -0.6669871 -0.27814117 0.51941144 0.08640555
0.52600217 -0.45065165 -0.4306016 -0.019256676 -0.45281705 0.14005405 -0.3461199 0.16192447
-0.14839844 -0.09557648 0.42537808 -0.36848122 0.8460762 -0.03010869 0.13944128 -0.37030402
-0.36433035 -0.103912205 0.06688963 0.0011630746 0.38686743 0.065472014 -0.55650234 -0.8372953
5.357818 -3.4618201 -0.69175935 -0.60809004 -0.10080098 0.0965805 -0.08846639 0.33679557
0.1163331 -0.994621 -0.5193298 0.72862554 -0.4324523 0.1520452 3.964366 0.12660067
0.09005505 -2.908517 -0.008560297 0.59344 0.6805873 -0.42207107 -0.2933185 -0.32386187
0.513189 -0.28752172 -0.07537542 -0.31746003 0.010336179 -0.29902813 -0.8800574 0.12443965
2.8645914 -1.4545089 0.720602 -0.20356399 -0.21538411 0.7415558 0.27024233 0.5109817
0.1028313 -1.5200602 -0.30247647 -5.102165 -0.11751211 -0.801595 3.2213879 -0.16053587
0.28630987 -2.1170208 0.9025742 1.0872895 3.0322425 0.08110669 0.42956647 0.14645068
0.5697471 -0.8846554 0.36921698 0.034941934 1.0008073 0.55826813 -0.25700387 -0.10374146
1.4185002 1.4642096 1.8590345 -1.7098678 -0.5875712 0.19452392 0.48869392 0.7240099
0.5164537 -1.361148 -0.9486156 0.7098899 -0.47665754 -1.0966055 -1.7896203 -0.9246709
-0.31025207 0.71449435 1.8318511 -2.233337 -0.28654397 2.238961 0.14477077 0.11949677
1.0245622 0.12749827 1.3821206 0.04928028 -0.7983645 -0.6205078 -2.9789464 0.22137605
-0.4249901 0.32394287 0.747 0.990815 -0.40063664 0.12935826 0.2778732 -0.13914332
-0.2367244 0.63170034 0.38170126 0.4065345 -0.626119 -1.5259956 -1.5120586 -1.0360504
-0.016205316 -0.17294002 0.67663795 -0.21574236 0.29303214 0.46801803 -0.07532295 0.49401924
-0.16226864 -0.7445583 0.64951986 -0.051601738 -0.6261127 -0.17707908 -0.75330585 -0.974808
-0.46876404 0.24629153 0.32558098 0.45377958 -0.44331542 -0.94311965 -0.75769377 0.22204348
-0.13089956 0.44190955 0.6877417 0.00435511 0.19052295 -0.254637 -0.25766802 -0.55503076
-0.24426235 -0.3531059 -0.52210695 -0.16597573 -0.08539121 -0.84317887 -0.5773974 -0.31255022
-0.27418524 0.62110645 -0.074892096 -0.7532394 -0.31227538 -0.41370666 0.22624381 -0.5492059
-0.13416968 1.1435199 -0.81606966 0.27048656 -0.4231538 -0.20665859 0.5816344 -0.038598903
0.36723998 1.407321 -0.10723469 -0.36516738 0.06182304 -1.904068 1.5259808 -0.62279844
0.26814654 1.0647991 0.8726697 -1.0080098 0.0945194 0.42769146 0.22553886 -0.55717725
0.35738194 0.057534266 0.45477647 -0.2408625 -0.020871628 -0.5028674 -2.248994 1.5275965
-1.2067039 1.2209773 -0.10268284 0.2750582 -2.6135142 -1.4954494 -0.87674767 -1.3807561
-1.387447 0.49409002 0.057911463 0.44725043 -0.07117293 1.1051439 -0.6057511 -1.6282986
-1.4500549 1.6158231 -0.48652095 0.43668318 -1.1581842 -0.03605382 0.59631956 0.03498214
-0.257253 3.7069662 2.3004208 0.05368864 -0.09395778 0.20095484 -0.6719503 0.5402643

hidden_layers.0.bias f4 [32]
00000000: 5bbe adbe c64e 42bf e511 c4be d281 9abe
00000010: 343e 6e3e 39bc d5be db55 00be eda9 ae3f
00000020: a0c3 b93c 8f71 98be 1792 4fbf 11d3 cf3e
00000030: ae2d 10bd ae91 1f3f fee6 13bf 4845 43bf
00000040: d714 90bf a80c d0be 0d29 93bf 777e 3c3e
00000050: 20e1 7dbe dddd a9be 07d3 7b3e 719d 63bf
00000060: c399 323f 2f97 903f 85df 623f 2645 b8be
00000070: 0174 0d3e 9569 123e 4bf1 52bf 1eb4 dfbd
-0.33934292 -0.7590145 -0.38294902 -0.3017717 0.23265916 -0.41745165 -0.12532751 1.3645607
0.02267629 -0.29774138 -0.8108229 0.40590718 -0.035199814 0.62331665 -0.5777434 -0.7627759
-1.125636 -0.40634656 -1.1496903 0.18407618 -0.2479291 -0.3317708 0.2459222 -0.8891211
0.6976587 1.1296138 0.88622314 -0.35990256 0.13813783 0.14298089 -0.82399434 -0.109230265

hidden_layers.1.weight f4 [32, 32]
00000000: 0e42 84bd ba8f 61bf e89b 37bf bd1d c73e
00000010: 97d0 82be f068 0f3f 0ba4 883f dbed 823f
00000020: b95a b43d 4172 b63e 8942 973d 0a4d 593f
00000030: 6906 b0bf 3a4b 923d 441a d4be d56f 833e
00000040: 9b91 5bbe b402 6e3f f84f 3ebe 9865 b23e
00000050: 222d e1bd a391 fabe 47b9 a23e 7bd8 2ebe
00000060: c0cd 35bf 119e d23e 8cb2 d2be 3465 0a3f
00000070: d3a1 87be 657b 2d3e 47ef ad3e be17 47bf
00000080: 3e73 32bf 6851 a0c0 17f3 18bf e2a7 9abe
00000090: d0ee a23e 91b4 02bf 043f 0b40 c576 053f
000000a0: f9e9 3c3e cc56 0040 bef7 72bf bf22 0b3e
000000b0: 501d a0bd 2ad4 933f 6712 fa3e 61a8 dabe
000000c0: b3fd d3bd 02ea e63e 505f abbf 3941 88bf
000000d0: fe1a a93d 7ec2 58bf 662f a33f b35b 7abf
000000e0: a6d0 38bd 6021 ae3d 2e5b 803c 8b69 2ebf
000000f0: 271f c13f e17d e83e 612b f3be f032 3ebe
00000100: 19e6 313e 5911 d7bd 07a8 60be 79f8 47bf
00000110: 15f9 6ebe 5d5f 113c e5d5 d5be 072d 013f
00000120: bc4a 7ebe 5d8a 63be 87f7 413f 5b50 a73e
00000130: 6844 ee3b 5146 c3bf c937 dfbe f9ab c4be
00000140: 55d9 cbbe 910a 123f 1646 853f def4 00bf
00000150: 50f0 c2be 7e5f a7bc cc5c ed3e f07c 58be
00000160: 0e6b 403e 1c6a 833e 82de 1c3f a225 b73c
00000170: 9573 98be 1d98 ca3d 75b0 3bbf 3858 31be
00000180: 06e3 93bd 95ac 9ebf b145 d3bf beb2 3d3f
00000190: e704 f93d 2dd7 5b3e 5880 33c0 4241 543e
000001a0: a3e4 903e ab19 bdc0 47ba c7bf 0f1d 5ac0
000001b0: 136e 5bbe 9d69 6940 3422 cfbe 0bc7 4ebd
000001c0: bce0 cf3c 1bb5 91be d124 42be c2eb 7a40
000001d0: c7c3 08bf 9a9f 94c0 65b2 0340 9eed 29bf
000001e0: 16fe 783e 67f1 563f c7cb ef3e 0f46 92be
000001f0: 337e 18be 2346 d43e 7b51 8bbe c81b e23d
00000200: 06f6 823f 3015 ef3e 4667 98be 8784 efbe
00000210: 6dd5 7a3f 698a af3e 9103 823f 7e4d 91bf
00000220: b628 113f 6e79 b0be 0f66 3d3f ac54 c33d
00000230: 46d0 933e 7594 80bf 853a ea3f 9621 14be
00000240: 6fde 113f 6ef7 ff3e 5909 403f 169d 01bf
00000250: 0dc5 cabe b9d4 7c3e 290b 623f d574 063f
00000260: 90ac 6d3c 4cf1 b2be d388 1d3e 1320 99bd
00000270: 231c 233f 02b0 2ebe 2066 37bf ca6d 043f
00000280: 0982 dcbe 4e23 a53e eb8b 4abd dc17 ecbf
00000290: 4ea8 e8be 1b5b 2abd cca1 46bf 85b3 203f
000002a0: 85de a93f 4959 083f 9b20 f03e e3e2 cdbe
000002b0: e7cc 9abe 2364 d83e bf9e 27bf efe1 203d
000002c0: 6c9e 6d3f ef36 0bbe dc8c a43d 1d62 b8bc
000002d0: 3612 a43e 7073 acbe 8f20 d03d 3728 7f3d
000002e0: c172 873c fe8c cc3e e707 81bf 0102 023f
000002f0: 68bf fd3e 57f1 5a3e 689b 7a3e c535 283f
00000300: 796f b7be 813e bbbe ba95 003f e647 333f
00000310: 6c05 69be e57d ac3e e971 0b3f 68d4 acbe
00000320: 072a 673e 0d20 a73f faca a23f 99dc 02be
00000330: 78d3 543f 0636 68be bc84 51be f6ff c53e
00000340: 6793 11bf ea22 343e 7b4b 913c f8a3 4ebe
00000350: 3a97 1d3d f627 13bf 334f f9be 9835 3d3f
00000360: 7efa 493e 13f2 8e3f 3093 b63e 9756 2cbf
00000370: 8b6a 023e 860a 32be 6e71 7d3e c21e 203f
00000380: bc98 253e c414 ac3f c062 f63f fb84 503f
00000390: 8e07 8dbf 88e6 233d a279 15c0 10ac 25bc
000003a0: b719 80be bfd8 a93d 7f69 e13e 19e7 553f
000003b0: 08d5 2fbf e1de abbf b21b 923e e20e 4f3f
000003c0: c753 9e3d 1e16 38bf 7a54 0b3e 72e6 dfbf
000003d0: 76ae 7d3e f7c1 363f ea6c 4dbf cc68 1e3f
000003e0: bb95 dd3e db9b dcbe 4106 b23d bf68 c73c
000003f0: fab1 d5be 05db 56bf cab4 bb3e 5f99 4f3f
-0.064579114 -0.88109934 -0.7172227 0.38889876 -0.25549766 0.56019497 1.0675062 1.0228838
0.088063665 0.35634044 0.073857374 0.8488318 -1.3751956 0.071432546 -0.4142629 0.2567126
-0.21442263 0.92972875 -0.18585193 0.34843135 -0.109949365 -0.48939237 0.3178198 -0.17074768
-0.71017075 0.4113622 -0.41151845 0.54060674 -0.2649065 0.16941603 0.33971617 -0.777706
-0.69707096 -5.0099373 -0.59745926 -0.3020621 0.31822824 -0.5105677 2.1757212 0.5213435
0.18448628 2.0052977 -0.94909275 0.13587473 -0.07818091 1.1549122 0.48842165 -0.42706588
-0.10351124 0.4510041 -1.3388462 -1.0644904 0.082571015 -0.8467177 1.274884 -0.9779617
-0.045120858 0.085024595 0.015668478 -0.68129796 1.5087632 0.45408538 -0.47494033 -0.18574119
0.17372932 -0.10501356 -0.21939097 -0.78113514 -0.23337205 0.008872834 -0.4176475 0.5045933
-0.24833196 -0.2222075 0.7576832 0.32678494 0.0072713383 -1.5255834 -0.43597248 -0.38412455
-0.3981425 0.57047373 1.0412014 -0.5037364 -0.3807397 -0.020431276 0.4635986 -0.2114141
0.18790838 0.25666893 0.6127702 0.022356812 -0.29775682 0.098922946 -0.7331613 -0.17318809
-0.07221036 -1.2396418 -1.6505643 0.74100864 0.12159138 0.21468802 -2.8047085 0.20728019
0.28299436 -5.9093833 -1.5603722 -3.4080236 -0.21428709 3.6470711 -0.40455782 -0.05048279
0.025375716 -0.28458485 -0.18959357 3.9206395 -0.5342373 -4.6444826 2.0577633 -0.663782
0.24315676 0.839621 0.46835157 -0.28569075 -0.14891891 0.4145976 -0.27210602 0.11040455
1.023133 0.46695852 -0.2976629 -0.46780798 0.9798191 0.34285286 1.0157338 -1.1351774
0.56702745 -0.34467643 0.73983854 0.09537634 0.28869838 -1.0045305 1.8299109 -0.14465937
0.5698003 0.4999346 0.75014263 -0.5063032 -0.39603463 0.24690522 0.8829828 0.5252202
0.014506474 -0.3494972 0.15384226 -0.07476821 0.6371481 -0.17059329 -0.71640205 0.51730025
-0.4306796 0.32253498 -0.049449842 -1.8444781 -0.45440906 -0.04159079 -0.7759063 0.62773925
1.3271033 0.5326124 0.46899876 -0.40212163 -0.30234453 0.42263898 -0.654766 0.039277967
0.9281986 -0.13595174 0.08034679 -0.022507722 0.32045144 -0.33681822 0.1016246 0.06229421
0.016534211 0.39951319 -1.0080537 0.5078431 0.49560094 0.21381126 0.24473345 0.65707046
-0.35827234 -0.36571124 0.50228465 0.70031583 -0.22755975 0.336898 0.5447069 -0.33755803
0.22574626 1.3056656 1.2718194 -0.12779464 0.83135176 -0.22676858 -0.2046079 0.38671845
-0.56865543 0.17591444 0.017736187 -0.20179737 0.0384743 -0.5748285 -0.48693237 0.739099
0.19724461 1.1167625 0.3565917 -0.67319626 0.12735955 -0.17386827 0.24750301 0.6254693
0.16171545 1.3443837 1.9248886 0.8145291 -1.101793 0.040014774 -2.3355489 -0.010111824
-0.2501962 0.08293294 0.440258 0.8355575 -0.68684435 -1.3427392 0.28536755 0.80882084
0.07730823 -0.7190875 0.13606444 -1.7492201 0.24773583 0.71389717 -0.80244315 0.6187866
0.43278298 -0.43087658 0.08692599 0.024341939 -0.41737348 -0.8392795 0.3666137 0.810934

hidden_layers.1.bias f4 [32]
00000000: 58f4 6dbe 836f fc3e 17eb aa3e 2dc6 4f3f
00000010: 877f bcbd f829 bdbe 779b 71bc 67d9 9cbe
00000020: 16d4 67be e7f9 b5bd 2a0e f53e 7c5c c13e
00000030: 5d2b 3d3e 58d7 01bf ed07 533e e5bb 2c3e
00000040: 4936 dabe 1f64 a6be 2eec 113f bdfd 3bbe
00000050: 1937 bb3e b162 3d3e 8939 10bf 81eb 80bf
00000060: 7649 b73e e628 5abe fc0b babe fc9e 2ebf
00000070: 7bbb 353f ab00 a9be 4929 04bf 93e9 bf3d
-0.23237741 0.49303827 0.33382484 0.8116177 -0.092040114 -0.36946082 -0.014746538 -0.30634615
-0.22639498 -0.08885556 0.4786237 0.37765872 0.18473573 -0.50719213 0.20608492 0.16868551
-0.4261954 -0.3249826 0.57001007 -0.18358512 0.36565474 0.18494679 -0.5633779 -1.007187
0.35798234 -0.21304664 -0.36337268 -0.6821134 0.709892 -0.33008322 -0.51625496 0.093707226

hidden_layers.2.weight f4 [32, 32]
00000000: 2d6f 393f fe97 88be 59b5 f53e 438e 78bd
00000010: cb49 01be 5353 afbb 6008 8b3e 2d0e 02be
00000020: f7f1 1a3f 18b3 78be 3868 543e 0756 1b3f
00000030: ba10 c3bd ce78 12bf d82e 8d3f 3cd2 01bf
00000040: 2333 4f3f 64f8 1cbf dfb9 b0be fa78 143f
00000050: 1f7f 91be 106b 4e3e e936 92bd 6656 f3be
00000060: 2192 aabe 791f ce3e e599 0d3e fdba 7ebe
00000070: 25a1 2a3e 5373 96be 03f8 153e 5fa2 3a3f
00000080: 6298 a6bd 30f3 ae3f f394 08bf 9e7a 4fbf
00000090: 3cd7 6f3f e480 08bf eed2 e83e 8f9a aebf
000000a0: db1c 4dbf 27e3 513e 59e2 133f 2097 393f
000000b0: 76ec ca3e 61f9 c8be bca0 32bf e830 c4be
000000c0: 1cce a9bf 9975 a0be ebb5 8a3f 4acc 87be
000000d0: cd63 ff3e 695c 8c3e 633b 62bf e955 2dbd
000000e0: 0fe4 583f db9a 17bf c4bf acbe 27d4 94be
000000f0: be1b 743a e07d 273e 5c13 843f 8b15 2abf
00000100: 5210 623d d2e8 aebe b2b5 8abe 6de0 743f
00000110: 233d f2be 2581 13bf 61d6 33bb e747 f5be
00000120: efa5 0a3e f323 8a3e 1bd3 d9be 4dac 243f
00000130: 0162 d5be 8257 57bf ffc6 cabe df34 373e
00000140: ef93 f4be 9f5a dd3d 69a0 9ebd eb37 0abf
00000150: e527 ad3d 3daa 4abe f96e cabd 2b9c 223f
00000160: 4fc7 0040 9852 9f3e 8c1b 08c0 b6a6 6cbe
00000170: 965b 20bf e103 cabc 6bed c2bf 227b b53e
00000180: 2c7c 223f f13a b9bf 418c 703f 66e6 043f
00000190: ba19 e03d fb77 cc3e 447e 61bf 2310 443f
000001a0: 471d 7cbf b645 88bf cb35 87bf 78dc 913e
000001b0: 0838 273f ec58 113e 872b cdbe b5cc f63f
000001c0: 6bed 89be 4195 12bf a017 dd3d 9942 863e
000001d0: 4c32 c33e 14bb c9bf d256 e6be 8740 90bf
000001e0: c9f7 163e 5119 253f 1a52 2fbe 0d38 c2bf
000001f0: fd4b a0be 7e0c 80bf 71c8 70bd 30cf 44bf
00000200: 6515 cfbe 3d3f 783e c6f1 583e b3a4 b93e
00000210: f508 a13e 5940 52bf f52f a7bd 44e0 6e3d
00000220: 5daa 37bc 4882 5abe bfac 89be 95b1 713d
00000230: 97ea d9be bb18 1bbf f68b 48be 0d9b c33e
00000240: a6eb 6cbe 9a06 90be aaaa 003e 615b 73bf
00000250: a819 ae3d 39e3 5dbe d2e0 0abf f9bd d8be
00000260: ae3c 5a3f 939e c0be 4a88 bebe b533 71bf
00000270: 6eea 143f 87ac f03e 2190 21be c9a4 a9be
00000280: 0b1f 193f a377 013f e1de 343f ef81 08c0
00000290: 4d42 863e 3ec2 98be 72aa e83e a0dd bc3f
000002a0: 8bf3 3cbe b6f6 0d3f afce 5bbe 90df 9bbe
000002b0: 9d9f 473f 3861 33be 2a7a 063f 494b 7e3e
000002c0: d9fe ca3e e85c d93f 098b 213f 2fc6 78bf
000002d0: 526e abbf 9e50 08c0 65da e5bd b169 653f
000002e0: fdf9 913e f658 0bbe 4c63 01c0 dda8 cabf
000002f0: 0047 0cbc ce21 513f 5ff4 0fbf dc9f 02bf
00000300: 1c0b 3fbe c2d7 4c3e 34a2 da3d a7fe 40bf
00000310: 743d 1f3e 8c6b 563f 68fe ab3f c17b 743f
00000320: fafe a63e 4bdb ce3e fecf 703e 496d 063e
00000330: f427 96be 2fa3 35bf c45f 3d3e bafb abbf
00000340: a1e4 eabd 1148 443f 6cc7 8c3e 4bb5 8e3f
00000350: 7be5 173f b2a0 a2bd 31bb 5e3e d4c2 d73f
00000360: 9633 d63e 2e31 c3bf a41f d2be f6a3 2bbf
00000370: 6cce 25bf fce9 b03f fdaa b43c 474c 3dbe
00000380: af54 74be d542 2c3f ef42 db3f bb35 883e
00000390: 3176 6d3f deea 193f 302c 363f 7135 b1bf
000003a0: 7723 dabc 2255 383f f93e dabe 9fcb 2840
000003b0: 1369 dcbe 1894 cbbf 6fc4 fcbe 72d0 e3bd
000003c0: 96f9 ca3d 8f77 ce3f 2cfc 8b3e 91b1 bebd
000003d0: 2932 00bd 9771 e63f 7f22 183d 4c2e 3c3f
000003e0: 2475 4cbe 33bc 20bf 0592 ad3f a9e1 173e
000003f0: f5d4 dc3f 321d d43e 38b8 143f c0a9 053f
0.72435266 -0.2667846 0.4798992 -0.060682546 -0.12625806 -0.005350509 0.27154827 -0.1270072
0.6052546 -0.24287069 0.20742881 0.6067814 -0.09524675 -0.57215583 1.102992 -0.5071142
0.80937403 -0.61316514 -0.34516808 0.57997096 -0.28417298 0.20158029 -0.071393795 -0.47526854
-0.33314613 0.40258387 0.13828237 -0.24876018 0.16663034 -0.2938486 0.1464539 0.7290401
-0.081345335 1.3667965 -0.5335228 -0.81046474 0.93687797 -0.5332167 0.45473427 -1.3640918
-0.80122155 0.20496808 0.57767254 0.72496223 0.3963353 -0.3925276 -0.6977651 -0.38318563
-1.3266025 -0.3133972 1.0836767 -0.26523048 0.4988083 0.27414253 -0.88371867 -0.04231826
0.8472299 -0.59220666 -0.33740056 -0.2906811 0.0009311995 0.16356611 1.0318408 -0.6643912
0.055191346 -0.34162003 -0.27091748 0.95654947 -0.4731227 -0.57618934 -0.0027441012 -0.4790642
0.13539861 0.26980552 -0.42543873 0.6432541 -0.41676334 -0.841179 -0.39604947 0.17891262
-0.47769114 0.108083 -0.077454396 -0.53991574 0.08454875 -0.19791503 -0.098844476 0.63519543
2.0121648 0.31117702 -2.1266813 -0.2311047 -0.6263975 -0.024660053 -1.5228704 0.35445505
0.6347072 -1.4471112 0.9396401 0.5191406 0.10942407 0.39935288 -0.8808329 0.7658712
-0.98482174 -1.0646274 -1.0563291 0.28488517 0.6531987 0.14194077 -0.4007227 1.9281222
-0.26938948 -0.57258993 0.10795522 0.26222685 0.3812431 -1.5760217 -0.44988114 -1.1269692
0.1474296 0.64491755 -0.17121163 -1.5173355 -0.31307974 -1.0003812 -0.058784906 -0.76878643
-0.4044601 0.24242873 0.21185979 0.36258468 0.31452146 -0.82129437 -0.08163444 0.058319345
-0.011210051 -0.21338761 -0.26889607 0.059007246 -0.4256179 -0.6058461 -0.19584641 0.38204232
-0.23136768 -0.28130037 0.12565103 -0.9506131 0.08500987 -0.2166871 -0.542493 -0.42332438
0.8524884 -0.37620983 -0.37213355 -0.94219524 0.5817021 0.47006628 -0.15777637 -0.33133534
0.5981299 0.50573176 0.70652586 -2.1329305 0.26222458 -0.29835695 0.4544254 1.4755135
-0.1845228 0.55454576 -0.21465562 -0.30444002 0.77977926 -0.17517555 0.5253016 0.24833407
0.39647558 1.6981478 0.63102776 -0.97177404 -1.3393042 -2.1299205 -0.11223296 0.896144
0.28511038 -0.13608155 -2.0216856 -1.5832783 -0.00856185 0.81692207 -0.56232256 -0.51025176
-0.18656582 0.2000418 0.10675469 -0.7538857 0.15550786 0.83757854 1.3437014 0.95501333
0.32616407 0.40401682 0.23516843 0.13127626 -0.29327357 -0.70952123 0.18493563 -1.3436196
-0.11469389 0.76672465 0.27495897 1.1149076 0.59334534 -0.079408064 0.21751095 1.6856332
0.41836232 -1.5249383 -0.41039765 -0.6704706 -0.647681 1.3821406 0.02205419 -0.18486129
-0.23860429 0.6728948 1.7129802 0.26603493 0.9275847 0.60124004 0.71161175 -1.3844434
-0.02662824 0.720049 -0.4262617 2.637428 -0.43048915 -1.590457 -0.49368617 -0.11123742
0.09910886 1.6130236 0.2734083 -0.09311212 -0.031297836 1.8003415 0.037142273 0.73508143
-0.1996656 -0.6278717 1.3560187 0.14832176 1.7252489 0.41428524 0.58093596 0.5221214

hidden_layers.2.bias f4 [32]
00000000: 6dec 23ba 42f0 8a3e 21ba 0b3f 991b d83e
00000010: 9bc5 6b3f 1769 98bd 388e 41bf 03ed 50be
00000020: de68 ab3e 709e 0bbf 6903 203f e41a 46bf
00000030: 0746 90bd 695c 46bf dadb 8ebc 75b5 8c3e
00000040: 664d 193f 7913 c93e bc54 c83e 45f9 8a3e
00000050: cd83 96ba fc73 a03d f034 013f 8d52 823e
00000060: 1215 9d3e 54e8 863e c6fa ffbe ec29 033e
00000070: 19b6 27bf 058d e6be 399a 51be 0c52 32be
-0.0006253187 0.27136427 0.54580885 0.42208555 0.92098397 -0.07441919 -0.75607634 -0.20402913
0.33478445 -0.5453863 0.62505203 -0.7738478 -0.07044607 -0.77484757 -0.017438818 0.2748219
0.59883726 0.3927267 0.39127147 0.27143303 -0.0011483371 0.07834622 0.504714 0.25453606
0.30680138 0.26349127 -0.49996012 0.1280896 -0.65512234 -0.45029464 -0.20468988 -0.17414111

output_layer.weight f4 [2, 32]
00000000: fd0c 873f 9228 e9bf 1bec 673f d401 bd3f
00000010: 9f18 fcbe 2e30 593d cab5 3ec0 936f b6bf
00000020: 339e c0be ecd1 3ebd 5539 113f 5f05 76c0
00000030: 13e4 ca3f 7585 99bf a64b 93be 25a9 b53e
00000040: d937 4bbf 1825 bf3f 82ec 9abf 628a 0740
00000050: 4118 603f 707a 8d3f 54dd 9e3e a635 ba3e
00000060: 1ab2 ccbf 1cc1 2040 cbe6 30bf 1043 df3e
00000070: 2ac7 593c 351a 783f 4668 c7bf 6131 c0bc
00000080: 7c1c 573e 71c0 b93e 6a17 123f 2196 4640
00000090: 6f44 6dbc 9aef 3ac0 531f 51be b88f 38bf
000000a0: 298c 243f c603 fbc0 e2dc 313f d17e 87bc
000000b0: e435 9bbf 0345 85bf fbb1 7a40 fc5d b13d
000000c0: d9a3 923f 50ef c93f a7f3 1a40 aab3 0dc1
000000d0: 7a44 243f 730c cebe ce60 0d3e 9dfc b13f
000000e0: 8734 58be db2d 2740 5525 fa3f 8e88 2d40
000000f0: d72b b13e 6de8 9c3f a4dd 053f e942 1a40
1.0550839 -1.8215506 0.90594643 1.4766183 -0.49237534 0.053024463 -2.9798455 -1.42528
-0.37620696 -0.046586916 0.56728107 -3.8440778 1.5850853 -1.1993853 -0.28768653 0.3548061
-0.7938209 1.4933195 -1.2103426 2.1178212 0.8753701 1.105299 0.31028235 0.36369056
-1.5991852 2.5117865 -0.6910216 0.43605852 0.013292113 0.9691499 -1.5578697 -0.023461046
0.2100696 0.36279634 0.5706698 3.1029131 -0.014481648 -2.920874 -0.20422105 -0.720943
0.6427637 -7.8442106 0.69477665 -0.016539963 -1.2125821 -1.0411686 3.917113 0.08660504
1.1456252 1.5776157 2.4211214 -8.856363 0.64166987 -0.40243873 0.1380646 1.3905216
-0.21113788 2.6121738 1.9542643 2.7114596 0.3460376 1.2258431 0.5229132 2.4103339

output_layer.bias f4 [2]
00000000: c500 863e 48e1 613f
0.26172462 0.88234377
