models/task_2/joint_1.47.pt (torch, 17314 bytes, 10 tensors)

input_layer.weight f4 [32, 2]
00000000: 0ccd 0b3f 2c9c 173f 1d12 26be 3d84 243f
00000010: 39c9 fabd 627d 253e bd12 aebe a92c d53e
00000020: fd03 223f 3e31 00bf 1ce9 1c3f 4687 0a3e
00000030: e537 003f fa1d 943d a9c3 b23e b683 b6bd
00000040: acd8 0a3f 42c5 d73d 5988 acbe ee66 273e
00000050: 701b 9ebe 37d1 94bd 6784 9abe b4a5 e33e
00000060: 1891 10bf f05f abbe 5275 47be e7d4 d4be
00000070: 4184 9e3d 608c 30bf edb3 203f e0f8 19bf
00000080: b265 093f e487 e13d b8f0 77be 9fc9 d93e
00000090: 862d ef3d 0396 103f 8ab3 a13d 4e81 65be
000000a0: eed4 4a3e c6cf 3bbe 610e 903e 0a14 1e3f
000000b0: b0d7 c93e 5212 a2be bb31 c23e 6250 c13d
000000c0: 9250 b53e 0bf8 d9be 80f4 31bf d9a0 8bbe
000000d0: 5597 08bf a45d 153f 3de2 433e 9bd7 923e
000000e0: 17dd 5b3e d53b 5dbc 4426 0f3f 355b f7be
000000f0: 43ce 99ba 4c01 f7be 9141 533e d1a8 7fbe
0.5460975 0.59222674 -0.16217847 0.6426428 -0.122454114 0.16161111 -0.3399867 0.41635635
0.63287336 -0.5007514 0.61293197 0.13528165 0.5008529 0.0723228 0.34914902 -0.089118406
0.54236865 0.10535671 -0.33697775 0.16347858 -0.30880308 -0.07266467 -0.3017914 0.4446236
-0.56471395 -0.33471632 -0.19478348 -0.41568682 0.07740069 -0.68964195 0.62774545 -0.6014538
0.536708 0.11012247 -0.2421292 0.42536637 0.11678605 0.564789 0.078955725 -0.22412607
0.19807789 -0.18340978 0.2813597 0.6174933 0.3942237 -0.31654602 0.37928566 0.0943916
0.35413033 -0.42572054 -0.695137 -0.27271155 -0.53355914 0.5834601 0.19129272 0.2868012
0.21471058 -0.013503035 0.55917764 -0.48311773 -0.0011734444 -0.48243177 0.2063048 -0.24966742

input_layer.bias f4 [32]
00000000: fd4d 663c 5ac2 ddba 0e74 e43c c007 d03b
00000010: 97ce 8f3c d554 c03b b8a8 ecbc 4434 513c
00000020: 3952 3b3b 9e67 9abc 12a2 683c adfe d9bc
00000030: d468 87bc fc80 b73b b0dc 653a f5d0 0cbc
00000040: 6a69 04bc 9751 29bc 6c7c 4eba d3fb 01bc
00000050: 4899 0d3c 8e95 53bc d1b2 67bc b040 1fbd
00000060: 7623 3b3b 6f8b 2abb 067b 343c 109f dbbb
00000070: fc97 5cbb 093f 8e3c 143f 24bc 1b9b 58bc
0.01405668 -0.0016918883 0.02788737 0.00634858 0.017554564 0.0058694878 -0.028889045 0.012768809
0.0028582944 -0.018848237 0.014198797 -0.026610697 -0.016529478 0.005600093 0.0008768542 -0.008594741
-0.008081773 -0.010334394 -0.00078768167 -0.007933575 0.008642502 -0.012914075 -0.014141754 -0.03888005
0.0028555072 -0.002602305 0.011015659 -0.0067023113 -0.0033659926 0.017364042 -0.010024805 -0.013220574

hidden_layers.0.weight f4 [32, 32]
00000000: 5e4c 263e 03d9 d2bd 22ce d83e a05a 9abe
00000010: 7ce9 9bbe 1ac9 99be 82b5 ec3e 9864 2f3e
00000020: 4d3b fd3e e7f2 d7be 3b2d 02bf 159e cbbe
00000030: ef41 b2be 03a3 4f3e 70cf 363e 72be d83e
00000040: 7915 85be 2540 b1be b0d7 8c3e d477 54be
00000050: 6473 9e3e 2a05 edbd 7e80 953e 5b7b c9be
00000060: 7f5a 84be dc1a 1a3e ad1c df3d 9102 02be
00000070: 0459 9c3e c966 b13e 6010 bfbe b6c1 8bbe
00000080: a00b f03e ee42 30be 7e9d 39be 8718 fdbe
00000090: 4e0f 95be c70a 043e 504f 87bd ec40 bdbe
000000a0: fe0a 5a3c ded5 b2be c21e debe 8e10 90be
000000b0: cf6d e5be eec7 a6be 7991 023f b497 c73d
000000c0: a968 223e a4d3 f3be c340 abbe faaa 2dbe
000000d0: 6633 a43d e54d e5be bb5a 60be 5cdd 9bbe
000000e0: 570b 023b fb23 44be b36c 14bd 70ad b0be
000000f0: 370b b3be ceef 97be b4eb 32be d401 cebe
00000100: c57e e13e ec0f cabd acb4 df3e 3f8b 203e
00000110: 583a dbbe e1ce b93e 80d9 06be d4c0 42be
00000120: cd3d d4be 470a 03bf 185d 0e3e 31b4 e6bd
00000130: ad3f 403e d6ed dabe 1b04 bf3e 8527 bebe
00000140: 9bbd a1bd a206 d93d f956 8b3e 4695 d23e
00000150: 5a4a ef3e e267 c9be 958d 073e c181 58be
00000160: 669e 5bbd 255a c9be 7fac ec3e 1fd7 bbbe
00000170: 2d23 8e3e f139 3b3e d53f 253e 071b 8cbe
00000180: a615 f23e 3448 ed3d b29b 853d 2e2d e6be
00000190: d699 5c3e 609f 8fbd bfbd 69be 22cb e13e
000001a0: daea f43d c388 91be c854 86be 4199 bfbc
000001b0: 410b 8e3e f799 0bbe fcd9 97be 1763 32be
000001c0: 902d c0be 4cb0 3b3e 9b6e cd3e fca7 f6be
000001d0: 13b4 f33d 8009 8b3e 5b2f c03d fdfd 34be
000001e0: fd51 883e 5f4c 853e b362 433e fb91 adbd
000001f0: bce4 07be a1fd 623d 13dd c0bd ef89 1bbe
00000200: 5bb3 a93e e6df e03e 3ab5 53bd bf30 edbd
00000210: 91b0 213c 1fd9 d5bc b3b8 013e d537 153e
00000220: af33 ebbe bc4a 43be 095d da3e e172 4a3e
00000230: daad f6bc 3c78 9fbe 3f13 a1be 1bef e8be
00000240: 6117 26be c9af 2f3e a776 a83e 69fc 703e
00000250: c43e e6be 79b2 9abe 6d49 a0bd e8a5 fe3e
00000260: 3d80 9a3d ec53 0cbe 4742 563e 1b91 43be
00000270: 99e7 a7be 2fd7 bf3e d678 6fbe 85c4 cebd
00000280: a126 03bf 0481 ad3e 0fd8 c53e e58f 3d3e
00000290: 500e b6be 2cb5 01bf 1d7b d5be 8966 c23e
000002a0: 1228 783e 6e11 dc3e 2ac2 893e a5ee 023e
000002b0: 1a67 a7ba ed2c c5be 082b debe 090c f4be
000002c0: 7923 533e eefc 80be a71f d9bd d5dc 95be
000002d0: 91ea bdbd d600 babe 70b3 aabe 1211 2b3e
000002e0: 046e 1abe dd4a a33e 4c99 28be 7ae1 c0be
000002f0: 2920 babd e3d9 7cbe d261 1dbe 6f7d f8be
00000300: 1c70 943e fdb1 b5be 6ecc 823e f3e0 6b3e
00000310: 74bd bb3e ce84 c6be fb98 bd3e 53e1 74be
00000320: f566 453e a46e f43e e58d 98bd 278a 9bbb
00000330: d4b9 f8bd bb91 dbbe 3b15 7a3e eb32 01bf
00000340: bbf6 a33e 5030 c33e 4160 f83e 514b f5bd
00000350: d51c d6be 8e89 f23d f140 913e 8545 01bf
00000360: 14b1 eabd a4cb 9ebe 3455 3dbd 81b7 7ebe
00000370: daca 53be 8dfa 23be c395 f8be e2f5 d63e
00000380: 4aea d33e 03f4 abbd d5a6 66bd 8e9e 53be
00000390: dae5 edbe 03db 01bf f99d 383e 4837 92be
000003a0: 90fa acbe 304c 11bd fa9d 26be 58b4 28be
000003b0: 1eab e83c c475 cabd b11c 2dbe 2a33 7dbe
000003c0: f5b1 d9be bbf5 da3e 25c8 5abe 725b 0b3e
000003d0: a668 37be ddde ee3c d7b6 f13e df02 683e
000003e0: 304a e3be 9738 5c3e fb17 f93e 403d 013e
000003f0: 41b8 ac3e 95f2 ff3e 26e1 95bd 224d d53d
0.1624007 -0.10295298 0.42344767 -0.30147266 -0.30451572 -0.3003624 0.4623223 0.17128217
0.49459305 -0.42177507 -0.50850266 -0.39769045 -0.34815928 0.20277028 0.17852569 0.42332798
-0.25992945 -0.3461925 0.27508307 -0.20748836 0.3094741 -0.115732506 0.29199594 -0.39351925
-0.25850293 0.15049309 0.10894141 -0.12696292 0.30536664 0.3464873 -0.3731718 -0.27296227
0.4688387 -0.17213032 -0.18126485 -0.49432775 -0.2911324 0.12894736 -0.066069245 -0.36963594
0.013308285 -0.34928793 -0.4338284 -0.2813763 -0.4481034 -0.3257441 0.51003224 0.09745732
0.15860237 -0.47622406 -0.33447847 -0.16959754 0.08017616 -0.4478599 -0.21909611 -0.3044232
0.0019843185 -0.1915435 -0.036236476 -0.34507322 -0.34969494 -0.29675144 -0.17472726 -0.4023577
0.4404203 -0.09866318 0.4369253 0.15678118 -0.4281795 0.3629065 -0.13168907 -0.1901887
-0.414534 -0.51187557 0.139027 -0.112648375 0.1877429 -0.4275958 0.3730782 -0.37139526
-0.078974925 0.10596968 0.27214792 0.41129512 0.46736413 -0.3933707 0.13237603 -0.21143247
-0.053617857 -0.39326587 0.46225354 -0.36687562 0.27761212 0.18283822 0.16137631 -0.2736437
0.4728214 0.11586037 0.06523837 -0.44956344 0.21543059 -0.0701282 -0.22826289 0.4410029
0.11958857 -0.28424653 -0.26236558 -0.023388507 0.2774296 -0.13632952 -0.29658496 -0.17420612
-0.3753476 0.1832897 0.40123448 -0.48175037 0.11899581 0.27155685 0.09384032 -0.17675014
0.26625052 0.2603483 0.1908062 -0.08475109 -0.13270849 0.05541766 -0.094171666 -0.15189336
0.3314465 0.4392082 -0.051686503 -0.11581563 0.009868757 -0.026104508 0.12668113 0.1457208
-0.4593787 -0.19071478 0.42649105 0.19770385 -0.030112196 -0.3114642 -0.31459996 -0.45494923
-0.16219856 0.171569 0.32903025 0.23533787 -0.4496976 -0.3021429 -0.07826505 0.4973595
0.07543991 -0.13703889 0.2092372 -0.19098322 -0.32793882 0.3746886 -0.23385939 -0.10096077
-0.5123082 0.33887494 0.38641402 0.18511923 -0.35557795 -0.5066707 -0.4169549 0.37968853
0.24234036 0.42982048 0.26905948 0.12786348 -0.0012771816 -0.38510838 -0.43392205 -0.47665432
0.20619 -0.2519297 -0.1060174 -0.29270044 -0.092732556 -0.36328763 -0.33340025 0.1670573
-0.1508103 0.31893054 -0.16464728 -0.37672025 -0.09088165 -0.24692492 -0.15369347 -0.48533198
0.28991783 -0.35487357 0.25546592 0.2303503 0.3666798 -0.38773197 0.37030777 -0.2391408
0.19277556 0.47740662 -0.07448939 -0.0047466937 -0.12144819 -0.4288462 0.24422161 -0.5046832
0.32024178 0.38122797 0.48510936 -0.11977256 -0.41818872 0.11842643 0.2836986 -0.50496703
-0.11459556 -0.3101474 -0.046223834 -0.24874689 -0.2068285 -0.16013546 -0.4855176 0.4198447
0.41389686 -0.08396151 -0.056311447 -0.20665953 -0.46464425 -0.5072481 0.18029012 -0.285578
-0.33784914 -0.03547305 -0.16271201 -0.16475046 0.028401908 -0.09885743 -0.16905476 -0.24726549
-0.42518583 0.42765602 -0.21365412 0.13609102 -0.17911014 0.029159004 0.47209808 0.22657345
-0.44392538 0.21505962 0.48651108 0.12621021 0.33734325 0.49989763 -0.07318334 0.104151025

hidden_layers.0.bias f4 [32]
00000000: f8cd 0e3c 468e 0a3b 429c 8c3c 52e9 593c
00000010: b98f f33b 2f91 ddbb 5c44 a63b fdf6 9fbc
00000020: 0543 e33b 8547 2d3a ef39 1e3c fd22 ac3c
00000030: 2f38 28bb e71a 9abc ca2d 8fbb 3d54 1f3c
00000040: 5e39 7138 0ba4 80ba 71a0 2a3b 232d 353b
00000050: 784e 383c 27d3 5b3c d856 abbc a29a 15bc
00000060: 10de 87bc 049f 26bc 5abe 45bc 61a1 7f3b
00000070: 48bf b2bc afa1 2cbb f0a3 3bbc fd4e 37bc
0.008716099 0.002114193 0.017164353 0.013300257 0.0074329046 -0.006761692 0.005074067 -0.019526953
0.0069354796 0.00066100835 0.009657367 0.021012777 -0.0025668254 -0.018811656 -0.004369472 0.009724674
5.7512305e-05 -0.0009814514 0.0026035572 0.0027645312 0.011249177 0.013417042 -0.020915434 -0.009131106
-0.01658538 -0.010169748 -0.012069309 0.0039006101 -0.021819726 -0.0026341488 -0.01145266 -0.011188266

hidden_layers.1.weight f4 [32, 32]
00000000: 6dfc 86be 824a 01bf c50c 463e 9681 933e
00000010: 7325 dfbe 4c38 3a3e 5d6f de3e 20b9 fe3c
00000020: 7386 9ebe 8da9 d53e ae9e 5d3e c047 ac3e
00000030: 0435 b0be eecf 973e 7ac3 b1be 3711 013f
00000040: 9591 60be dbdc 9e3e 56ae cc3d b983 0d3e
00000050: 7281 9ebd 30bd 553e a85b 59be 3d46 f6be
00000060: 5a69 47be f31b cc3e cdfa 05be c67c 213e
00000070: f6e9 40be 2e08 c53e 2b14 9c3e 5564 353e
00000080: 3ffd 84be 5873 d5be d3cb 963c 1bed 97be
00000090: 3d64 d73e eb8c fbbe 5014 6c3e c02c 023f
000000a0: 70ef 813e 10d6 303e f25f fcbe eeeb fa3e
000000b0: 2de2 afbd a9a9 f4be ee67 013f c168 56be
000000c0: a7d6 1ebd 7eda ef3e 9649 b6be 9251 b7be
000000d0: c7db a93d 88f9 8dbd 2551 f03d 349e dbbe
000000e0: 3bbb 873c 2e4a 6abe cf99 7dbe c974 f0be
000000f0: 39d3 8a3e 46b0 cb3d ce75 ddbe 7282 cd3e
00000100: b64b 1e3e 696d c23d 05a1 99be 5e73 9e3d
00000110: 31b2 fb3e 7ac4 b23e db5f cbbe ce47 ee3e
00000120: ce98 1e3d c5be 7a3e 64b4 ca3e 5ab5 de3e
00000130: be68 cbbe 82a5 e43e a02e b1be 48b8 1b3d
00000140: eebd b6be 2b3f e5bd 52a6 c2bc 0b8a 78bd
00000150: ddd0 a5bd afc0 243d 0bc4 003f 949b 973e
00000160: 3e31 923e 4fcc 503e bb9d ca3e 1414 c7bc
00000170: 3a67 273d 76d2 d63d e221 e4be dbae d2be
00000180: 1918 643d f402 4fbe 3286 bdbb 14a8 fabd
00000190: 646d a13d 9c64 ae3e b41b 32be c92a d33e
000001a0: 9956 d33e 0869 c5be a9e7 c6be 4064 d2be
000001b0: 3762 92be 9f51 48be 02e2 37bd 25c4 f8bd
000001c0: 8eb6 80be 7ba7 27be b74c 35be 3f2c fd3e
000001d0: 2938 3fbe ed9c babe e173 5c3e 7354 dcbc
000001e0: 0c6a c73e 3bef a43e 2697 ea3e 2f2d babe
000001f0: 1517 a63e ef58 db3e babd 7cbe 586f f23e
00000200: 5c1a c63e c9f2 da3b 76b1 793e a463 32be
00000210: c107 e3be dafc fc3d 4019 203e 6ec4 abbe
00000220: 7790 763e 623f e1be 63d2 de3e d207 fc3e
00000230: 7e65 123e 77ee a4be 706f 813e 1709 ae3d
00000240: 16a1 083e 244a 2e3e ab17 c43e 0e4c 5bbe
00000250: b1eb ecbd 9e61 0d3e 3fa9 5d3d 5afc d13e
00000260: d077 88be c8ce abbc 5a75 d33d e318 12be
00000270: d64f b33e 5ef0 683d ca24 f3be 3c38 73bd
00000280: 53a8 6dbe 6b51 4b3d 37fa 71bd 42e1 01bf
00000290: 1d6f c0bd deda 44bd 5a93 1bbe 6017 f03e
000002a0: 2f53 e1bd a837 a83e 8656 023e 4033 dcbe
000002b0: 293d f43d c6b1 d83e c656 abbe b9a3 a8be
000002c0: bd45 003f 8e52 d13e 411e 91be fe74 9c3e
000002d0: 1b3e 86bd 11b1 00bf 67d3 1c3d 31f7 283e
000002e0: f567 1dbe ed7c 363e 4467 e0be 7ddf b53e
000002f0: 7a9c de3e d8a5 8f3e 930f b23d eea2 2d3e
00000300: beca bbbe f330 00be bc92 51bd 9819 90be
00000310: daf1 c2be 6a03 af3e 2bd4 b03e 0170 eebe
00000320: 0f03 253e f3a0 523e ddcd f63e 383b 983e
00000330: feb5 f13e 6ce8 2dbe 3557 b83e 438c d23e
00000340: 53fb f6be 5ded d3be b1d8 cf3d 5d74 8f3e
00000350: b28b 83be 5db5 633d cc4e 66bb 3144 013e
00000360: 333b 8cbe ac59 923e 3290 ae3e d707 b6be
00000370: 3933 e93b 6650 e2ba d8cc 243e a68f f23e
00000380: 61b3 163e d0a0 edbd fb03 eb3e 5222 4abe
00000390: 95b8 1abe fd49 1c3d d11b c9be b574 653d
000003a0: 61c8 aebe a7ea 603d 0fc5 533d 8c1e 953d
000003b0: 9895 ddbe 8ea4 f7be fb5a 6d3e c0ac e03e
000003c0: 2b42 e5be 79b8 3d3e 0c2b bebe 822b e03c
000003d0: 27be f23e 33d1 c63e 7907 bfbe e488 a13e
000003e0: 0f91 873e 3010 163a 8bba f93e b3df 49be
000003f0: 292d f6bd ee31 85be dcbf 993d d9bc 0d3e
-0.2636446 -0.50504315 0.19340809 0.28809804 -0.4358326 0.18185538 0.43444338 0.031094134
-0.30961952 0.4173092 0.21642563 0.3364849 -0.34415448 0.29650825 -0.3471945 0.5041689
-0.21930535 0.31027874 0.099941894 0.1381978 -0.077395335 0.2087295 -0.2122637 -0.48100463
-0.19473782 0.39865074 -0.13083954 0.15770254 -0.18839249 0.38482803 0.30484137 0.17714055
-0.2597446 -0.41689563 0.018407738 -0.29673085 0.42068663 -0.4913095 0.23054624 0.50849533
0.2537799 0.17269158 -0.4929195 0.49008125 -0.085880615 -0.4778569 0.5054921 -0.20938398
-0.038778927 0.46846384 -0.35603017 -0.3580442 0.08293872 -0.0693236 0.11734227 -0.42894137
0.01656877 -0.2287986 -0.24765705 -0.469641 0.27114275 0.09945731 -0.4325394 0.40138584
0.15458569 0.094935246 -0.3000566 0.07736848 0.49159387 0.34915525 -0.3972157 0.46539158
0.038719945 0.24486835 0.39590752 0.43497735 -0.3972835 0.44657522 -0.34605885 0.03801754
-0.3569178 -0.11193689 -0.023760948 -0.060678523 -0.08096478 0.04022282 0.5029914 0.29610884
0.28553194 0.20390438 0.39573464 -0.024301566 0.04086993 0.10489361 -0.445571 -0.4114903
0.055687044 -0.2021597 -0.0057838196 -0.122390896 0.07882193 0.34061134 -0.1739338 0.4124358
0.41277006 -0.38556695 -0.38848618 -0.4109211 -0.28590557 -0.19562386 -0.044893272 -0.121467866
-0.25139278 -0.16372482 -0.17705046 0.4944782 -0.18673767 -0.3644785 0.2152858 -0.026895737
0.38948095 0.32213768 0.45818442 -0.36362597 0.32439485 0.42841288 -0.2468175 0.47350574
0.38691986 0.0066817743 0.24384102 -0.17420822 -0.44341853 0.12352915 0.15634632 -0.335483
0.24078546 -0.4399367 0.43519887 0.49224716 0.14296529 -0.32213184 0.25280333 0.084978275
0.133427 0.1702047 0.38299307 -0.21415731 -0.11568392 0.13806769 0.054116484 0.4101284
-0.2665391 -0.020972624 0.103251174 -0.14267306 0.35021847 0.056869857 -0.47489005 -0.0593798
-0.23208742 0.049638193 -0.059076514 -0.5073434 -0.09396193 -0.04806029 -0.15192929 0.46892834
-0.11002194 0.32854962 0.12728319 -0.4300785 0.11925728 0.4232313 -0.3346464 -0.3293741
0.5010641 0.40883297 -0.28343394 0.30558008 -0.065548144 -0.5027018 0.038287546 0.16500546
-0.15371688 0.17821093 -0.43828785 0.3552207 0.43478757 0.28056216 0.08694377 0.16956684
-0.36678118 -0.12518673 -0.051165327 -0.28144526 -0.38075143 0.34182292 0.3453687 -0.46569827
0.16114448 0.2056921 0.48203936 0.2973268 0.47209162 -0.16983193 0.36004034 0.41122636
-0.4823862 -0.4139203 0.101487525 0.28018466 -0.25692517 0.055592883 -0.0035142181 0.12623669
-0.27388915 0.2858404 0.34094387 -0.35552856 0.007116702 -0.0017266392 0.16093767 0.4737522
0.14716865 -0.11602938 0.45901474 -0.19739655 -0.15109475 0.0381565 -0.39279035 0.056019504
-0.34137252 0.054911282 0.0517016 0.07281217 -0.43278193 -0.48367733 0.23179238 0.43881798
-0.44777045 0.18527402 -0.37142217 0.027364496 0.474107 0.3883148 -0.3731039 0.31549752
0.26477858 0.0005724458 0.48775133 -0.1971424 -0.12020332 -0.26014656 0.075072974 0.13841571

hidden_layers.1.bias f4 [32]
00000000: 16fa a23b 2de1 863b e542 563a 2b96 3abc
00000010: f7da 143c f0e5 1ebb fadf 923a 8d52 00bc
00000020: 5621 dd3b f992 823c 9ecf 49bc cc1e 82bc
00000030: 23b0 90bb d5d1 9e3b cee2 31bc f503 c4ba
00000040: 7707 e3bb bf6d 02bc 4dcb 4c3c da0f fdb9
00000050: c024 4abc f067 89bb 1256 c73b 3984 8fbb
00000060: 434a b2bb b5bd 2cbb 4c15 81ba 44a6 373b
00000070: b076 3fbb 3122 cbba ec85 b1b8 a945 acbb
0.00497366 0.0041161985 0.000817342 -0.011388342 0.009085408 -0.002424594 0.0011205666 -0.007832182
0.0067483587 0.015939223 -0.012317566 -0.015883826 -0.0044155284 0.0048467913 -0.010857297 -0.0014954793
-0.00692838 -0.007960736 0.012499643 -0.0004826773 -0.012337863 -0.0041932985 0.0060832584 -0.004379776
-0.0054409816 -0.0026358191 -0.0009848266 0.0028022686 -0.002921503 -0.0015497861 -8.4649626e-05 -0.0052573276

hidden_layers.2.weight f4 [32, 32]
00000000: c40d c5bd 4e69 293e 28d3 cf3e a85a f93d
00000010: 9b18 b53e a6ad ac3e 1131 133e f58b 313e
00000020: a85d 293e ee4a 493d 4100 e03e 3dd2 ee3e
00000030: 0dbc 343e 3f72 bbbc af56 ec3e f7c1 ccbe
00000040: e0cc bf3e 8080 883e 6b45 a53e 79ba 0abd
00000050: cda8 c1be 5c3b bc3e c128 5dbe aea8 073e
00000060: a591 903e d1bf f4be f250 293d 5246 34be
00000070: dacc b83e 0d25 a8be 21e0 a03e 280c a73e
00000080: f1cb 8d3e 2f10 fd3e cde4 983d e25c eabe
00000090: 6e10 bb3e 3105 293d 5e1d 2c3c f302 f7be
000000a0: 7476 ecbd bead 7abe 927a fe3e bb00 bc3e
000000b0: 470a c53e 08e7 b13e efae a3be e3f1 5dbe
000000c0: 342d 4cbe 1e95 4ebe 8166 cd3e 1d25 2d3e
000000d0: 997c d03e f067 ddbc 4efa ebbe c9d7 15be
000000e0: 5083 ba3e b05a 9f3e f458 1b3e ecb7 1dbe
000000f0: 617a f3be 12eb 8abe 8d66 863e 2cb8 59be
00000100: 52ad 7c3e 6af3 0b3e a939 47be 0f93 9d3e
00000110: c39a 28be 218b 60bc 862e 47be eed4 f8be
00000120: 7af3 a83d ca16 153e 1b92 82be a038 9f3e
00000130: 5ab9 ebbe 2f60 fbbe 6c64 a0be efbd 35be
00000140: 8e11 6bbd e808 cebd 52d8 6b3e 98fd e3be
00000150: 6c08 9d3d 8735 2d3c a90b 0e3e a3a7 013f
00000160: 3f0b 9f3e c907 91be b324 d4be 2e78 f7bd
00000170: 5f81 83be d5e9 343e 9dae f23b 5c4f d43e
00000180: 8286 513e b453 c5bd 027b ae3c 7782 f53d
00000190: f36a 87bd 46fb d43e 6ee5 ccbe 3870 7d3e
000001a0: 42b4 a6be dadf e6be 3388 d3bd d068 7b3e
000001b0: 62c4 b63e e00e 063e 23b1 29bd 5f8c f4bc
000001c0: e0d2 53be 529d 4abd 8354 1fbd 8e73 e03e
000001d0: 4886 9a3e a03d d0be c455 be3b 05b3 a0be
000001e0: 1c72 adbd d2e1 d0be 9f13 0c3e 40c1 babe
000001f0: 6e83 003f 511b c43e 6a8f b2be 86d5 f3be
00000200: 5da0 903c c727 0ebe 2ea3 193e 887b aebe
00000210: 264a 543e c06c e3be 91f3 89be f3d0 86be
00000220: 221b 7b3e 7b6e 65bc 93c2 fbbe adf5 93be
00000230: 5c04 70be f583 f2be 1daa 813d fb33 3d3e
00000240: 7423 c0bd f949 50be ef42 dbba e16d d0be
00000250: 97ea 9dbe b38a 76bc 04de e53e 9d6e 1dbe
00000260: 8787 833e bc98 50be 3fcb 0fbe e414 fabe
00000270: 0c73 d73e 5d63 ff3e 7497 3fbc 6e59 a33e
00000280: 8e95 d43e a1ba 823e bcd8 853e 05c8 f7be
00000290: 2623 f5be 14dd c9be 30d5 233e cb23 e1be
000002a0: a1a2 c7be 1bd9 7bbe 4261 f1be a861 283b
000002b0: 9878 9a3d 6b7b 99be c547 aa3e db2d 45be
000002c0: bf12 13be 2dd0 c73e a335 e13e 2530 78bd
000002d0: 1d0b bcbe 7ac9 83be db27 803d 0d89 993e
000002e0: ea60 833e 9766 66be d67a f8be e9aa e5be
000002f0: 34da 25be 4c48 fd3b da2b 6cbe c82a d0be
00000300: 8e0f 4f3d e674 cdbe 3238 c9be ca29 d2be
00000310: 38be 0dbe 3393 e43e 638e 4c3e b4bf 66bd
00000320: e392 d43d c529 513e 6b0d 573a f534 d1be
00000330: 6f8c 9fbe e804 b2be 7aaa 7dbc 82e3 edbe
00000340: b59f bdbd e7a7 3dbe 90d6 003f 4ce9 d23e
00000350: 26c4 973e 767a d13c f238 2ebe 62b4 073e
00000360: e61d b2be aef7 5fbe c4ea dcbd 9a75 fcbd
00000370: f9ba f7be f5fb 513e 13f9 d53e 7c29 93be
00000380: bcc0 073e b924 5fbd 7509 b0bc 360c 0f3d
00000390: f6fd e23e e1f6 7f3d 6df2 a4be dc77 37be
000003a0: ee39 7e3e e4eb 253e 7bb0 f03b 5527 81bd
000003b0: 10e6 46be 90dc 3bbe 29ae 8bbe 8147 b13d
000003c0: 4ec0 123e e283 c93e f5f4 e3bd 8ece 023d
000003d0: 923f a83e 8f92 5f3e d1f9 723d 12cb 223e
000003e0: f61e 053d f315 e0be 5ec4 533c abc8 edbd
000003f0: aef0 eb3e 017d ed3e 9edd c83d e8cd e53e
-0.09621766 0.16544077 0.40590787 0.121754944 0.35370335 0.33726233 0.14374186 0.17338546
0.16539633 0.049143724 0.43750194 0.46644774 0.1764986 -0.022881625 0.46159884 -0.39991733
0.37460995 0.26660538 0.32279524 -0.03386924 -0.37824097 0.36764038 -0.21597578 0.1324794
0.28236118 -0.47802594 0.04133696 -0.1760495 0.3609379 -0.32840768 0.31420997 0.32626462
0.27694657 0.4942641 0.07465515 -0.4577399 0.36535972 0.041264717 0.010505049 -0.48244438
-0.11546031 -0.2448034 0.4970289 0.36719307 0.38484403 0.34746575 -0.319694 -0.21674304
-0.19939119 -0.20174071 0.40117267 0.16908689 0.4072006 -0.0270271 -0.46089405 -0.14633097
0.36428308 0.31123877 0.15170652 -0.15402192 -0.47554305 -0.2713247 0.26250115 -0.21261662
0.24675491 0.13667074 -0.1945559 0.3077626 -0.16465287 -0.013705046 -0.19451341 -0.48599952
0.082495645 0.14559475 -0.25502095 0.3109789 -0.4603985 -0.4909682 -0.31326616 -0.17748235
-0.05738979 -0.100602925 0.23031738 -0.44529414 0.07667622 0.010571844 0.13871635 0.5064642
0.31063268 -0.28326252 -0.4143425 -0.12083469 -0.2568464 0.17667325 0.0074060694 0.41466796
0.20461467 -0.09635106 0.02129889 0.11987775 -0.06612196 0.41597956 -0.4001879 0.2474984
-0.325594 -0.4509266 -0.10328712 0.24551702 0.35696703 0.13091612 -0.041428696 -0.02985209
-0.20685911 -0.04946644 -0.038898956 0.4383816 0.30180573 -0.40672016 0.005808564 -0.3138658
-0.0846903 -0.40797287 0.1367936 -0.36475563 0.50200546 0.3830209 -0.3487504 -0.47623843
0.017654592 -0.13882361 0.15003654 -0.34078622 0.2073141 -0.44418907 -0.2694364 -0.2633129
0.24522069 -0.014003391 -0.49171886 -0.28898373 -0.23439163 -0.473663 0.06331275 0.1847686
-0.09381762 -0.20340718 -0.0016728322 -0.4070883 -0.3084304 -0.015047717 0.44895947 -0.15374227
0.25689337 -0.20370764 -0.14042376 -0.48844063 0.4207996 0.49880496 -0.011693824 0.31904167
0.4152035 0.25533012 0.26141918 -0.4839479 -0.4787838 -0.39426482 0.15999293 -0.4397262
-0.38991264 -0.24594538 -0.47144514 0.0025692973 0.07542533 -0.29976973 0.3325788 -0.19255774
-0.1436262 0.39026013 0.43986234 -0.06059279 -0.3672723 -0.25739652 0.06257602 0.29987374
0.25659877 -0.22500072 -0.48531216 -0.44856957 -0.16196519 0.0077295657 -0.23063603 -0.4065764
0.050551943 -0.4012825 -0.39300686 -0.41047508 -0.13842094 0.44643554 0.19976191 -0.056335166
0.10379579 0.2042609 0.00082035986 -0.40860716 -0.3116183 -0.34769368 -0.015482539 -0.46462637
-0.09258977 -0.18521081 0.50327396 0.41193616 0.29641837 0.02557109 -0.1701391 0.13252404
-0.34788436 -0.21871826 -0.107869655 -0.12327118 -0.48384836 0.2050627 0.4179159 -0.28742588
0.13257116 -0.05447838 -0.021488884 0.034923755 0.44334382 0.0624913 -0.32216206 -0.17916816
0.24826786 0.16203266 0.007345257 -0.0630633 -0.194237 -0.18345857 -0.2728131 0.086562164
0.14331171 0.3935843 -0.11130706 0.031935267 0.32861 0.21833251 0.059320275 0.15897778
0.03250023 -0.43766746 0.012925236 -0.1161054 0.46082062 0.46384433 0.09807895 0.44883657

hidden_layers.2.bias f4 [32]
00000000: 5bf2 0ebc 2af8 f03b 1381 9abb 3311 8fbb
00000010: fc90 bb3b 16c2 303b 5c5a c13b dfe6 fb3b
00000020: b508 4a37 f87f 34b9 b0be 11bc fd2f 1d3c
00000030: 4c2d c83a 71d3 833c 3cac 0aba 7e92 96ba
00000040: 85c3 f23a 0f61 07bc b9d1 4c3b 56e5 1dbc
00000050: cf3a f63a 65ce 02ba ee47 81bb 7977 cb3a
00000060: 050e a33b b348 b1bb 0c0e 2c3c 97a5 cdbb
00000070: 5987 52ba e79c 2ebc e7cc e33a 9b6f 623b
-0.008724774 0.007353802 -0.004715094 -0.004366064 0.0057240706 0.0026971153 0.0059006643 0.007687434
1.20421655e-05 -0.0001721381 -0.008895561 0.009593961 0.0015272289 0.016092034 -0.0005289947 -0.001148775
0.0018521404 -0.008262887 0.0031252934 -0.0096371975 0.0018785837 -0.00049898616 -0.0039453423 0.0015523277
0.0049760365 -0.0054102778 0.010501396 -0.0062758434 -0.00080310326 -0.010657526 0.0017379791 0.0034551385

output_layer.weight f4 [2, 32]
00000000: b4be 963e 6bd8 7ebe ddd4 4e3e ddef f73c
00000010: ab03 eabe c86a fabe e01e 2bbf 437e c3be
00000020: 2b44 333e bca2 003d fd8e 073f f379 1fbf
00000030: 5c80 0abd cd08 21bf dbab 083c 56f0 793e
00000040: 92af 25bf be28 1c3f ab1c 63be 0223 1e3f
00000050: b706 f8bd a54c c13e 5ac4 213f b167 89be
00000060: 8e2f 2cbe 2e96 b73e f3f3 16bf e59e cf3e
00000070: f820 dabe 8642 263f b3f5 e4be 6e2d 98be
00000080: 69ce 043f f14a 9cbe f2f6 173f 9f05 f83e
00000090: 3ce5 213f 12cd 2fbf 6e58 813c 2e98 6abe
000000a0: c424 223e 8784 09bf e408 903e 906c 24bd
000000b0: f4c1 acbe 7a50 22bf 4b9f bf3e 24ad 82be
000000c0: 350c 023f 5b95 033e 1f26 523e 1b90 dabd
000000d0: 9c93 d5bd 322f 7cbe 5713 1cbf eea9 dd3e
000000e0: 8257 e5be 66b0 cc3e 4f65 6ebe 6d53 dc3e
000000f0: a531 193f 5abe d7be 2105 133f b1f9 513c
0.2944237 -0.24887244 0.20198388 0.030265743 -0.45705923 -0.48909593 -0.66843987 -0.38182268
0.17506473 0.031405196 0.5295256 -0.62295455 -0.03381382 -0.62904054 0.008341755 0.24408087
-0.64721024 0.6099967 -0.22178905 0.6177217 -0.12110656 0.37753788 0.63190234 -0.26836923
-0.16815016 0.35856766 -0.58965987 0.40550914 -0.42603278 0.64945257 -0.44718704 -0.2972216
0.51877457 -0.30525926 0.59361184 0.4844179 0.6324041 -0.6867229 0.015789237 -0.22909614
0.15834337 -0.53717846 0.28131783 -0.040142596 -0.33741724 -0.6340405 0.37426218 -0.2552272
0.50799876 0.12849943 0.20522355 -0.10672017 -0.10428545 -0.24627379 -0.6096701 0.4329371
-0.44793326 0.3997833 -0.23280834 0.430324 0.59841377 -0.42137414 0.574297 0.012815879

output_layer.bias f4 [2]
00000000: 13ba a2bc 32aa 0fbc
-0.019864118 -0.008768605
