models/task_2/tf.pt (torch, 17810 bytes, 13 tensors)

input_layer.weight f4 [25, 2]
2.275303 0.47687206 -0.386282 2.0239716 -0.7879239 0.6394579 -1.0176146 0.7358984
0.589613 -0.5058337 1.0591869 0.6761372 0.87273043 -1.2066871 1.178811 -0.7262226
1.2944075 -0.8626428 -0.9005314 -0.07860655 -0.07917997 -1.9149717 -0.6552344 0.09312855
-0.85741556 -1.3594565 -0.7322357 -0.9503385 -0.37635317 -3.018446 0.45192403 -0.9197879
0.76774657 0.7447503 -1.0089629 0.09070219 0.8506043 0.28712827 0.48836327 -0.11775367
0.18828474 -1.0072083 0.9922359 3.566583 2.3509629 -0.1716946 0.6009562 0.105098166
0.60445756 -0.10467075
00000000: 909e 1140 9328 f43e c1c6 c5be c088 0140
00000010: 61b5 49bf 83b3 233f 3241 82bf d663 3c3f
00000020: e1f0 163f 517e 01bf 7093 873f 5417 2d3f
00000030: 436b 5f3f b974 9abf 47e3 963f b9e9 39bf
00000040: 25af a53f 29d6 5cbf 3a89 66bf 79fc a0bd
00000050: 1c29 a2bd cb1d f5bf 71bd 27bf 2eba be3d
00000060: 967f 5bbf ac02 aebf cd73 3bbf 6249 73bf
00000070: 5db1 c0be 382e 41c0 9662 e73e 3877 6bbf
00000080: 0a8b 443f f5a7 3e3f b225 81bf 12c2 b93d
00000090: 34c1 593f 7a02 933e c00a fa3e d628 f1bd
000000a0: b7cd 403e 34ec 80bf 2c03 7e3f e542 6440
000000b0: 2d76 1640 b6d0 2fbe 44d8 193f b53d d73d
000000c0: bbbd 1a3f 9e5d d6bd

input_layer.bias f4 [25]
0.045672536 -0.8000501 0.88856465 0.5218893 -0.18962193 0.61246604 -0.21364632 0.62822425
-0.93241715 -0.29092744 1.7877101 3.9024136 -0.20629975 1.1459712 1.1714396 -1.1988798
0.6084405 2.9753435 -0.854566 -1.7309185 -0.8943597 0.4482187 0.12611435 -0.08452306
0.2235521
00000000: 2013 3b3d 15d0 4cbf f978 633f 8a9a 053f
00000010: 402c 42be 93ca 1c3f 1ac6 5abe 4ed3 203f
00000020: e4b2 6ebf 71f4 94be afd3 e43f 25c1 7940
00000030: 3e40 53be 2faf 923f bcf1 953f e574 99bf
00000040: c2c2 1b3f 076c 3e40 d6c4 5abf bd8e ddbf
00000050: c2f4 64bf ec7c e53e 1f24 013e 6d1a adbd
00000060: d7ea 643e

hidden_layers.0.weight f4 [25, 25]
-0.791971 0.28108746 -0.73294467 0.23215404 0.59672695 0.33588067 0.45635924 0.32029516
0.5146498 -0.772431 -0.30108073 -0.25472733 0.33467725 -0.5665785 -0.011290636 0.4094256
0.5835625 -0.24963856 -0.16659084 -0.37925917 0.22837937 -0.46128824 0.90261483 -0.26653463
-0.17073119 -0.33002734 -0.53028053 0.22104448 0.16515553 0.3601385 -0.6515746 -0.4826785
0.031642105 -0.1967539 0.43295437 0.6476655 0.017347695 -0.45332572 -0.34876242 -0.14827974
0.16223726 -0.41633287 0.111973114 0.61418 -0.19285785 -0.01910173 0.88866717 -0.3818771
-0.27753702 -0.6000136 -0.54938984 0.076195434 -0.009398708 -0.34704012 -0.06779368 -0.47576204
-0.66066045 -0.31458032 -0.6881254 -0.20406573 0.61923283 0.19991688 0.30469078 -0.37808594
-0.18414769 -0.2709674 -0.02202638 -0.42114243 -0.29294595 -0.36112604 0.055888712 -0.23483208
-0.22211951 -0.5108016 -0.4193197 -0.21376984 -0.39835027 -0.8589031 0.12718335 0.19681619
0.5797293 0.52255714 -0.32054716 0.99448985 -0.4687382 -0.37509555 -0.8159092 -0.65054303
-0.3943707 -0.18066528 0.41645133 -0.29438692 0.10869256 0.08006391 0.13767013 0.31514937
0.33631605 0.6559211 0.86415774 -0.11295878 0.10429517 -0.7778902 -0.042040277 -0.5606595
0.6927103 -0.16274878 0.460064 0.4447353 0.091544375 -0.3540363 0.585231 0.0646698
0.022717211 -0.43820477 0.64286643 0.1956532 -0.06470581 0.5117249 0.21064739 -0.18217851
0.056078464 -0.20067744 0.42429906 -0.072267674 -0.2315798 -0.30069894 -0.5815449 0.2566356
0.6847414 -0.68277055 0.07309094 0.20579682 0.1385364 -0.22407481 0.46724612 0.29503542
0.68592495 0.25154504 -0.5400315 -0.038052976 -0.16870402 -0.27673718 1.7327651 0.55168724
-1.0126462 -0.50828594 -0.5469167 0.21193516 -0.08100148 -0.16373472 -0.40507016 0.0717235
0.5221304 0.35455436 -0.30469692 -0.4684491 -0.5800185 -0.7878661 -0.1104975 0.35116902
0.5724087 0.24151872 -0.62160885 -0.51121914 -0.65491974 0.29995915 -0.021628452 -0.07242491
0.61128163 -0.21997216 -0.3296012 0.8665302 -0.6667424 -0.124987155 -0.7484138 -0.099342726
0.71677077 -0.15335467 -0.7057268 -0.16060837 -0.73580503 0.58129746 0.35441655 0.81959265
-0.017724425 0.766655 -0.3164788 0.07219582 -0.28381443 -0.9944595 0.6630915 -0.42242438
0.41011715 -0.53504896 -0.6390044 -1.297878 -1.5639853 0.41284975 -0.067160346 0.7279566
-0.7091196 -1.716749 -0.16252065 -0.6933179 0.1018845 -0.5160993 0.27106494 -0.18937984
0.11397889 0.009930652 0.3823745 -1.3448179 0.58864176 0.1842159 1.8624294 0.6742387
-0.10577865 -0.5015918 -0.67921865 -0.081945315 -0.1339668 -1.9744523 0.32793757 0.38218278
0.82362765 -0.18612222 -0.20062724 0.26938397 0.6014693 -0.90665746 -0.24642557 -0.4000374
-0.1801863 -0.38670674 -0.047528643 -0.108713984 -0.24473608 0.5753775 0.39226553 -0.21196784
-0.42929018 -0.33939663 -0.27516112 -0.39003694 0.06900928 -0.38697186 -0.32504752 -0.4205653
-0.27203438 -0.5149753 0.28576392 -0.5223352 -0.41297558 0.15275092 -0.6031805 0.6230398
00000000: 9dbe 4abf b2ea 8f3e 43a2 3bbf cab9 6d3e
00000010: 19c3 183f 8df8 ab3e eba7 e93e bafd a33e
00000020: 17c0 033f 0abe 45bf 4127 9abe 9f6b 82be
00000030: d15a ab3e 4a0b 11bf 5cfc 38bc 3ba0 d13e
00000040: 5a64 153f 40a1 7fbe ca96 2abe 422e c2be
00000050: 48dc 693e f92d ecbe c411 673f 3a77 88be
00000060: 28d4 2ebe 58f9 a8be 77c0 07bf 7c59 623e
00000070: 881e 293e 1364 b83e 98cd 26bf a321 f7be
00000080: 279b 013d db79 49be 32ac dd3e 68cd 253f
00000090: c11c 8e3c 4f1a e8be fd90 b2be a5d6 17be
000000a0: 8621 263e 9529 d5be 2952 e53d e73a 1d3f
000000b0: 877c 45be 3b7b 9cbc b17f 633f 6585 c3be
000000c0: 5519 8ebe 7e9a 19bf d0a4 0cbf 5a0c 9c3d
000000d0: 0afd 19bc 3eaf b1be 6ad7 8abd 1597 f3be
000000e0: 0b21 29bf ac10 a1be fc28 30bf 9bf6 50be
000000f0: 0b86 1e3f 03b7 4c3e 6e00 9c3e 7b94 c1be
00000100: 3691 3cbe 3dbc 8abe ab70 b4bc fb9f d7be
00000110: 03fd 95be 83e5 b8be 90eb 643d d277 70be
00000120: 4c73 63be e5c3 02bf 12b1 d6be 7be6 5abe
00000130: 91f4 cbbe 13e1 5bbf 5a3c 023e 2f8a 493e
00000140: 2469 143f 4ec6 053f c21e a4be e396 7e3f
00000150: 74fe efbe 860c c0be 6ddf 50bf fd89 26bf
00000160: f5ea c9be 5200 39be 1c39 d53e e2b9 96be
00000170: 349a de3d 8cf8 a33d 66f9 0c3e 425b a13e
00000180: 9e31 ac3e 72ea 273f 7139 5d3f ef56 e7bd
00000190: b598 d53d d023 47bf 6d32 2cbd 6287 0fbf
000001a0: 7655 313f 9ea7 26be 828d eb3e 58b4 e33e
000001b0: 9e7b bb3d 3f44 b5be b3d1 153f 9a71 843d
000001c0: 7219 ba3c 605c e0be e592 243f 5059 483e
000001d0: 7b84 84bd 6700 033f f3b3 573e 018d 3abe
000001e0: 88b2 653d 637e 4dbe ba3d d93e 1301 94bd
000001f0: 4123 6dbe 36f5 99be 20e0 14bf be65 833e
00000200: 364b 2f3f 0dca 2ebf b4b0 953d 67bc 523e
00000210: 7cdc 0d3e de73 65be e23a ef3e e20e 973e
00000220: c798 2f3f 83ca 803e 813f 0abf 70dd 1bbd
00000230: bfc0 2cbe 7fb0 8dbe 3fcb dd3f 603b 0d3f
00000240: 649e 81bf 071f 02bf bc02 0cbf 8805 593e
00000250: 1be4 a5bd 13aa 27be 5b65 cfbe c5e3 923d
00000260: 57aa 053f 2688 b53e 3c01 9cbe 8fd8 efbe
00000270: 187c 14bf 98b1 49bf 834c e2bd 6dcc b33e
00000280: 6089 123f af50 773e c221 1fbf 42df 02bf
00000290: d2a8 27bf 3f94 993e 272e b1bc 8353 94bd
000002a0: f47c 1c3f 6240 61be 7dc1 a8be ecd4 5d3f
000002b0: a1af 2abf 44f9 ffbd 0c98 3fbf 3374 cbbd
000002c0: 4a7e 373f 0209 1dbe 83aa 34bf 8576 24be
000002d0: b85d 3cbf e9cf 143f 1676 b53e d3d0 513f
000002e0: d032 91bc 8143 443f 8209 a2be 67db 933d
000002f0: 2050 91be e694 7ebf 5dc0 293f 0248 d8be
00000300: e0fa d13e f8f8 08bf cb95 23bf de20 a6bf
00000310: ac30 c8bf 0b61 d33e 5d8b 89bd 5d5b 3a3f
00000320: dd88 35bf 6ebe dbbf d06b 26be 487d 31bf
00000330: d2a8 d03d 151f 04bf 06c9 8a3e caec 41be
00000340: c46d e93d 2cb4 223c 97c6 c33e fe22 acbf
00000350: 3ab1 163f 18a3 3c3e 1664 ee3f e89a 2c3f
00000360: 7aa2 d8bd 5268 00bf 46e1 2dbf f2d2 a7bd
00000370: 982e 09be daba fcbf 6fe7 a73e 76ad c33e
00000380: 43d9 523f d396 3ebe 3a71 4dbe b2ec 893e
00000390: e4f9 193f b41a 68bf fc56 7cbe b4d1 ccbe
000003a0: c282 38be 6dfe c5be 65ad 42bd 70a5 debd
000003b0: 189c 7abe f14b 133f 07d7 c83e 190e 59be
000003c0: eccb dbbe 65c5 adbe ebe1 8cbe ecb2 c7be
000003d0: bd54 8d3d 2d21 c6be a16c a6be 5654 d7be
000003e0: 1748 8bbe 6cd5 03bf a64f 923e c2b7 05bf
000003f0: 8971 d3be bd6a 1c3e 0a6a 1abf 897f 1f3f

hidden_layers.0.bias f4 [25]
0.17391509 -0.32960764 0.10296851 -0.22696613 0.09872815 0.14634053 -0.37587333 -0.4950005
-0.02514243 -0.75327563 0.32711345 0.46204793 0.72802234 0.0710659 0.21002494 -0.30924228
1.0273768 -0.34080243 0.0061501805 0.102670595 -0.5485649 -0.035389055 -0.3321124 0.05252601
-0.021404684
00000000: cc16 323e 55c2 a8be 27e1 d23d cf69 68be
00000010: fc31 ca3d 4bda 153e 7872 c0be b570 fdbe
00000020: 7ff7 cdbc acd6 40bf 6a7b a73e 8c91 ec3e
00000030: ac5f 3a3f 008b 913d c710 573e 0155 9ebe
00000040: 1581 833f a87d aebe 7487 c93b f644 d23d
00000050: c06e 0cbf 1df4 10bd a30a aabe 8325 573d
00000060: e058 afbc

hidden_layers.1.weight f4 [25, 25]
0.2128149 0.026866749 -0.502694 -0.32644632 -0.20559762 0.58334535 0.13883412 -0.4574474
0.068177834 -0.5787711 1.1581793 -0.797723 0.29393333 -0.6977661 -0.74699926 0.15459883
0.61107427 0.106367625 0.50425565 0.14030777 0.17443302 0.583408 0.21179852 -0.37572563
0.91258013 0.25067562 -0.17606826 -0.079091266 -0.6617704 0.22769123 -0.7341363 0.083954446
0.8008044 0.0879645 0.2570114 0.64875484 1.0472455 1.625762 -0.4896935 0.8950206
0.17307006 0.11259408 -0.78275925 -0.02017896 -0.30850062 0.05232991 0.3741703 0.35836414
0.62527156 -0.3737057 0.5414169 0.3044869 -0.66500574 -0.21872567 -0.53374845 0.15840153
-0.41997358 -0.4868492 0.66661125 0.10822081 0.45432782 -0.6051977 -0.3099405 0.49051738
0.06741428 0.593616 0.080934085 0.30354643 0.2811521 -0.208891 -0.3448188 0.9830049
-0.44285718 -1.107905 0.38147402 0.10652809 -0.08838046 -0.41183987 0.14595987 0.5734553
-0.2534752 -0.16996267 0.26129496 -0.37151304 0.3266726 -0.07148279 -0.251902 -0.25919285
-0.36827335 -0.61800724 0.5163067 0.25881043 -0.30435455 -0.3699145 0.62966144 0.0037831329
0.0765413 -0.7001264 -0.20772508 0.15886983 0.36166397 -0.54885364 -0.011223091 0.21796396
0.039047174 -0.35818338 -0.6188192 -0.008586411 0.89106727 -0.27940413 -0.5893763 0.44985634
-0.15849295 -0.45663425 0.5933688 -0.049302515 0.39608368 0.47604412 -0.5090354 0.3313102
-0.64999473 -0.042469647 -0.09691536 -0.68874985 0.2315432 0.19092408 -0.13721155 -0.30474114
0.27443114 -0.11295904 -0.5511928 -0.038449254 0.2202502 0.69033074 -0.26013651 -0.64355314
0.49958017 -0.048462283 0.010742464 0.6067627 0.021276299 0.46723685 0.35657093 -1.2587129
0.5096011 0.36087242 0.66337186 -0.32274717 -0.4147512 -0.15287672 -0.057719067 0.2792208
-0.34099132 0.26842773 -0.2690238 0.1513889 0.006293203 -0.02572342 -0.8888943 -0.42330408
1.0409591 -0.14359309 -0.016235273 -0.0854251 -0.28797275 0.09241019 -0.49592414 -0.44197562
-1.2399876 -0.3575532 -0.16699871 0.6110705 -0.0005192097 -0.050259627 0.40188104 0.6664491
-0.7913713 -0.6961949 0.31810415 0.18715009 -0.10867518 0.008543509 0.29207662 0.58589333
0.23417956 -0.084101506 -0.4814075 0.013053516 -0.68494385 -0.5073625 0.6929318 0.8081971
0.54945904 -0.027441576 -0.041055534 -0.42830995 0.56158054 -0.112427056 0.031356756 -0.0050648306
0.15648653 0.32127547 -0.22385919 0.9120418 0.034824476 0.44121477 0.36763078 0.7374687
0.6991463 0.049436778 2.2711422 -0.1473985 -0.46237594 -0.68599546 -0.4434424 0.41419956
0.1154147 0.22879383 -0.0864682 0.59238315 -0.05692997 0.27871582 -0.52480006 -0.23524559
0.56338507 0.3598297 0.27937025 0.66847193 -0.4294632 0.57698435 0.106184706 -0.6621367
-0.084048934 0.23588595 -0.19178931 -0.5088983 1.4630895 0.29196832 0.05795993 0.69886416
-0.90404475 0.11765384 0.010617066 0.05853743 -0.08548584 -0.47087345 -0.33980864 -0.22890331
0.54527044 1.0349956 -0.74372274 0.4670892 0.5711244 -1.1475121 -0.35746786 0.4187638
00000000: 26ec 593e a817 dc3c 8eb0 00bf f923 a7be
00000010: 2f88 52be 1f56 153f 882a 0e3e 8c36 eabe
00000020: d2a0 8b3d 582a 14bf 383f 943f 9337 4cbf
00000030: 6e7e 963e cda0 32bf 583b 3fbf 284f 1e3e
00000040: 5d6f 1c3f 45d7 d93d e616 013f d7ac 0f3e
00000050: 929e 323e 3a5a 153f b6e1 583e 1c5f c0be
00000060: da9e 693f 8e58 803e 3d4b 34be 9afa a1bd
00000070: c969 29bf e427 693e 5bf0 3bbf 4ff0 ab3d
00000080: 8401 4d3f bb26 b43d 0097 833e cc14 263f
00000090: 240c 863f f818 d03f 1bb9 fabe 1220 653f
000000a0: 4739 313e ba97 e63d e962 48bf 594e a5bc
000000b0: cbf3 9dbe e357 563d 4093 bf3e 817b b73e
000000c0: cc11 203f 5a56 bfbe 4c9a 0a3f b5e5 9b3e
000000d0: d13d 2abf 9ff9 5fbe bda3 08bf 0334 223e
000000e0: c706 d7be 4c44 f9be 09a7 2a3f dfa2 dd3d
000000f0: a89d e83e 3dee 1abf 85b0 9ebe 1825 fb3e
00000100: 7f10 8a3d 38f7 173f c5c0 a53d 706a 9b3e
00000110: 2bf3 8f3e 86e7 55be 178c b0be 36a6 7b3f
00000120: 2dbe e2be d5cf 8dbf 9050 c33e 662b da3d
00000130: d100 b5bd addc d2be 8176 153e f7cd 123f
00000140: 80c7 81be b20a 2ebe 74c8 853e f536 bebe
00000150: a241 a73e 9265 92bd 4df9 80be edb4 84be
00000160: 538e bcbe b935 1ebf ad2c 043f cd82 843e
00000170: 5cd4 9bbe 6f65 bdbe 7e31 213f 70ee 773b
00000180: afc1 9c3d 7c3b 33bf e2b5 54be c6ae 223e
00000190: 052c b93e ac81 0cbf 0ee1 37bc f231 5f3e
000001a0: eeef 1f3d d063 b7be ef6a 1ebf 05ae 0cbc
000001b0: fc1c 643f 0f0e 8fbe 5de1 16bf 9253 e63e
000001c0: fa4b 22be f7cb e9be 05e7 173f 6ff1 49bd
000001d0: 7bcb ca3e 0ebc f33e 2550 02bf 7ea1 a93e
000001e0: 0e66 26bf a7f4 2dbd 8f7b c6bd e951 30bf
000001f0: a919 6d3e 9a81 433e 2f81 0cbe 0807 9cbe
00000200: 3d82 8c3e 1257 e7bd f91a 0dbf f77c 1dbd
00000210: 4589 613e 84b9 303f 9d30 85be e6bf 24bf
00000220: f9c8 ff3e 6380 46bd 2901 303c cd54 1b3f
00000230: a24b ae3c ab39 ef3e 7790 b63e 811d a1bf
00000240: 3875 023f 45c4 b83e bdd2 293f 1e3f a5be
00000250: 455a d4be b78b 1cbe d46a 6cbd 07f6 8e3e
00000260: 6a96 aebe 5c6f 893e 7dbd 89be b105 1b3e
00000270: 3737 ce3b ecb9 d2bc 948e 63bf 50bb d8be
00000280: 263e 853f 110a 13be d6ff 84bc 5bf3 aebd
00000290: 2a71 93be 8e41 bd3d c5e9 fdbe a14a e2be
000002a0: eab7 9ebf 3711 b7be b601 2bbe 1e6f 1c3f
000002b0: 931b 08ba 0add 4dbd 5ac3 cd3e 699c 2a3f
000002c0: 4f97 4abf d439 32bf 8cde a23e 46a4 3f3e
000002d0: 1891 debd 13fa 0b3c 118b 953e 1bfd 153f
000002e0: c4cc 6f3e 693d acbd 0b7b f6be 6ade 553c
000002f0: 7b58 2fbf 82e2 01bf fa63 313f 01e6 4e3f
00000300: 59a9 0c3f 28cd e0bc d929 28bd 714b dbbe
00000310: bec3 0f3f 2840 e6bd f16f 003d e1f6 a5bb
00000320: 013e 203e 387e a43e 583b 65be 927b 693f
00000330: 1ca4 0e3d e7e6 e13e 1a3a bc3e c0ca 3c3f
00000340: 40fb 323f 387e 4a3d 655a 1140 a2ef 16be
00000350: 8abc ecbe 669d 2fbf e20a e3be f711 d43e
00000360: 8b5e ec3d ee48 6a3e 3d16 b1bd 6ca6 173f
00000370: 662f 69bd d7b3 8e3e 4c59 06bf 38e4 70be
00000380: 013a 103f 993b b83e 9e09 8f3e fa20 2b3f
00000390: 9ae2 dbbe 3fb5 133f 5e77 d93d ca81 29bf
000003a0: d921 acbd 168c 713e 6b64 44be 2947 02bf
000003b0: 8446 bb3f df7c 953e 6467 6d3d c3e8 323f
000003c0: 7a6f 67bf 7ff4 f03d 34f3 2d3c f2c4 6f3d
000003d0: 3313 afbd 5316 f1be 66fb adbe a165 6abe
000003e0: d896 0b3f bc7a 843f 9d64 3ebf 5126 ef3e
000003f0: 3535 123f ade1 92bf 0706 b7be 3568 d63e

hidden_layers.1.bias f4 [25]
0.3295181 0.5501251 -0.102354914 0.3007365 -0.17388444 0.3770258 0.27774885 -0.11607533
0.20037805 0.6973214 0.16567196 -0.01725441 0.37191612 0.092229664 0.8456503 -0.015595314
-0.2039104 0.04182981 0.45702982 -0.38797504 -0.06900928 -0.06399787 -0.058365557 0.23572342
0.27223852
00000000: 99b6 a83e 00d5 0c3f 749f d1bd 22fa 993e
00000010: c30e 32be 8709 c13e 1935 8e3e e7b8 edbd
00000020: e72f 4d3e a883 323f e9a5 293e 1f59 8dbc
00000030: ca6b be3e e8e2 bc3d 8a7c 583f 7d83 7fbc
00000040: e3cd 50be bc55 2b3d d0ff e93e aaa4 c6be
00000050: bd54 8dbd 5111 83bd b910 6fbd 7b61 713e
00000060: d962 8b3e

hidden_layers.2.weight f4 [25, 25]
-0.28404683 -0.06055954 -0.18039283 0.074142516 -0.56484175 0.111085355 0.6768214 -0.5141662
-0.076879986 0.009287713 0.02514016 0.35811397 -0.19716072 -0.3359491 0.57756394 0.05515504
-0.08741532 0.017827665 -0.07188286 0.3038092 -0.5222746 0.057909597 0.39821872 -0.022730887
-0.67333597 -1.0714566 0.9942083 0.33059216 -0.4786006 0.3649873 -0.32349858 -0.11471665
0.5991698 0.08085488 -0.77542096 0.21355207 0.60267884 0.08071196 0.6957696 -0.80964315
-0.28824863 -1.0171992 0.3769139 -0.5689341 -0.039075967 -0.7617403 -0.6421845 -0.012656873
-0.5513291 -0.15456402 0.22834313 -0.49877954 0.20252241 -0.20149368 0.444587 -0.41771725
0.3174334 0.29802346 -0.041510545 -0.4374458 0.0450765 -0.36412174 -0.7861534 0.10558928
0.027893495 -0.7933329 -0.7784623 -1.3717136 1.2292387 1.2510906 0.03277484 0.24358995
-0.08955118 -0.6418916 0.07002577 -0.006652012 0.8009981 -0.15631633 0.43792498 0.29592958
-0.26528427 -0.72853374 0.24047515 -1.1264861 0.5699215 0.14961867 -0.5091303 0.38416225
0.25035447 -0.9467409 -0.8706922 0.43699855 0.6543582 0.038372315 0.546628 -0.6117322
-0.3823406 -0.17754482 0.2275949 -0.19239463 -0.36597487 -0.63579154 -0.32036334 0.020410845
-0.1285562 -0.19554058 0.7370671 0.12688866 -1.1633562 0.43855393 -0.2548333 0.19422874
-0.1641182 -0.21488571 -0.6406537 0.12868752 -0.6391664 0.24615562 -0.010227496 0.4636511
0.41293916 0.39017403 0.0034076527 -0.60448587 0.43423307 -0.7706564 -0.27747086 -0.59448755
-0.475648 -0.43176696 0.2868502 1.0025549 -0.007061693 0.22019546 -1.015439 0.30306783
0.12243452 0.011855547 -0.85642517 0.36727276 -0.56738126 -0.2071379 -0.33870327 -0.30990323
-0.36573088 -0.24051008 -0.14123511 0.52144724 -0.3921869 -0.39969274 0.14603198 -0.8441446
0.59080684 0.4100098 -0.41562846 -0.42693874 0.36791694 0.38949475 0.56413096 -0.9075063
-0.31075358 0.7257204 0.043424696 0.09750194 -0.41784483 -0.32958868 -0.43517298 -0.34741816
0.21905138 -0.52432024 0.203063 -0.20191279 -0.120436095 0.57827085 -0.28372362 0.27033737
-0.36566558 -0.025762748 -0.09143638 0.024789875 -0.13468792 0.40825385 -0.04552833 -0.21854618
-0.473706 -0.6364068 0.029140648 0.9207148 0.10439638 0.87085116 0.28882995 -0.33800855
-0.35393733 -0.407686 -0.64036953 -0.58780456 -0.58927 -0.16955967 0.705728 0.72250545
0.67246974 -0.37585962 -0.053260457 -0.24990395 -0.026759123 -0.49542934 0.32343706 0.20852591
0.23696615 -0.011135698 -0.25882247 0.42365846 0.4482707 0.66543955 0.1558788 0.5469747
0.58415395 0.4872951 0.50520635 -0.15879749 0.1549567 0.5475837 0.06996148 0.44569618
-0.04259982 -0.44833973 -0.12786475 -0.344686 0.36583948 -0.6993946 0.15536425 0.41012397
-0.04526654 0.042044606 -0.18500267 0.070440054 -0.93658984 -0.33344802 -0.8571165 -0.3519721
-0.35952836 0.97650003 0.5927829 2.0762067 1.8628275 -0.27784854 0.22073603 0.6959174
-0.62720174 -0.7062883 -0.40672505 0.3163466 0.1276664 0.092307195 0.76140326 0.080676556
00000000: 966e 91be 480d 78bd e6b8 38be 08d8 973d
00000010: 7899 10bf b880 e33d 2b44 2d3f 65a0 03bf
00000020: 4173 9dbd 7e2b 183c bdf2 cd3c b75a b73e
00000030: 80e4 49be 8501 acbe 3bdb 133f 40ea 613d
00000040: ce06 b3bd 530b 923c 5237 93bd e18c 9b3e
00000050: cab3 05bf 9d32 6d3d 53e3 cb3e 2036 babc
00000060: bf5f 2cbf 7d25 89bf 6f84 7e3f 6043 a93e
00000070: 230b f5be 9edf ba3e 9ba1 a5be 90f0 eabd
00000080: 3163 193f 3e97 a53d fd81 46bf 65ad 5a3e
00000090: 2949 1a3f 504c a53d f51d 323f c644 4fbf
000000a0: 5395 93be 9533 82bf dcfa c03e aaa5 11bf
000000b0: 1f0e 20bd 6a01 43bf 3466 24bf c65e 4fbc
000000c0: e723 0dbf 0846 1ebe c8d2 693e 0860 ffbe
000000d0: 0962 4f3e 5c54 4ebe e8a0 e33e 09df d5be
000000e0: a186 a23e 8896 983e f606 2abd e5f8 dfbe
000000f0: 23a2 383d 2a6e babe 5941 49bf 313f d83d
00000100: e680 e43c dd17 4bbf 4e49 47bf 5094 afbf
00000110: b257 9d3f bd23 a03f e93e 063d a56f 793e
00000120: 9c66 b7bd 0253 24bf ac69 8f3d 1ff9 d9bb
00000130: 360e 4d3f 6311 20be b437 e03e 1584 973e
00000140: 57d3 87be 3081 3abf 1e3f 763e b230 90bf
00000150: 60e6 113f a335 193e 5d56 02bf eab0 c43e
00000160: 762e 803e 9d5d 72bf afe5 5ebf 46be df3e
00000170: 0584 273f 4a2c 1d3d d0ef 0b3f 7b9a 1cbf
00000180: 26c2 c3be 4fce 35be a30e 693e 1903 45be
00000190: 0f61 bbbe 3cc3 22bf aa06 a4be a534 a73c
000001a0: 3da4 03be ca3b 48be 6eb0 3c3f 1aef 013e
000001b0: dbe8 94bf 248a e03e 8379 82be e6e3 463e
000001c0: 9a0e 28be 000b 5cbe e201 24bf a9c6 033e
000001d0: 69a0 23bf 3810 7c3e 3a91 27bc ad63 ed3e
000001e0: c36c d33e e4c4 c73e ed52 5f3b 96bf 1abf
000001f0: cc53 de3e bd49 45bf a910 8ebe 5630 18bf
00000200: 2288 f3be 8f10 ddbe 08de 923e b853 803f
00000210: c665 e7bb eb7a 613e e8f9 81bf b52b 9b3e
00000220: f3be fa3d c53d 423c ae3e 5bbf 2d0b bc3e
00000230: e63f 11bf f51b 54be 846a adbe a3ab 9ebe
00000240: 1441 bbbe 4648 76be f09f 10be 917d 053f
00000250: b9cc c8be 87a4 ccbe 6889 153e dc19 58bf
00000260: 1e3f 173f ceec d13e 41cd d4be b797 dabe
00000270: 9c5f bc3e db6b c73e e36a 103f 5552 68bf
00000280: 181b 9fbe d0c8 393f 18de 313d 19af c73d
00000290: c2ef d5be d9bf a8be fece debe cbe0 b1be
000002a0: 014f 603e da39 06bf bfef 4f3e 3ac2 4ebe
000002b0: 33a7 f6bd 8f09 143f 3944 91be a969 8a3e
000002c0: 8538 bbbe 660c d3bc ff42 bbbd 2314 cb3c
000002d0: a1eb 09be a606 d13e ea7b 3abd 92ca 5fbe
000002e0: 9889 f2be 8eeb 22bf 5eb8 ee3c f7b3 6b3f
000002f0: c5cd d53d 1af0 5e3f 85e1 933e 750f adbe
00000300: 4637 b5be 38bc d0be 42ef 23bf 5c7a 16bf
00000310: 66da 16bf 0da1 2dbe 97aa 343f 1ef6 383f
00000320: fa26 2c3f ac70 c0be a327 5abd d2e6 7fbe
00000330: f335 dbbc eaa8 fdbe 8b99 a53e d187 553e
00000340: 41a7 723e 8172 36bc 6184 84be c3e9 d83e
00000350: bd83 e53e 3f5a 2a3f b19e 1f3e 8906 0c3f
00000360: 1d8b 153f be7e f93e 3455 013f cf9b 22be
00000370: f8ac 1e3e 722e 0c3f f747 8f3d 4a32 e43e
00000380: 267d 2ebd c98c e5be faee 02be af7a b0be
00000390: 504f bb3e 860b 33bf ce17 1f3e c5fb d13e
000003a0: 6869 39bd f736 2c3d 5771 3dbe e042 903d
000003b0: 5ac4 6fbf b3b9 aabe fd6b 5bbf b035 b4be
000003c0: 1a14 b8be e8fb 793f 9fc0 173f 92e0 0440
000003d0: 2271 ee3f 2a42 8ebe a008 623e a527 323f
000003e0: 4b90 20bf 4fcf 34bf 443e d0be 2ef8 a13e
000003f0: fbba 023e 8e0b bd3d 53eb 423f c039 a53d

hidden_layers.2.bias f4 [25]
0.23479159 -0.6938586 -0.09288969 0.05422295 -0.3005015 -0.25811183 -0.6309463 0.14109841
-0.052527186 -0.37655506 -0.37763727 0.13457268 0.21057506 0.113893725 0.07068728 0.2895528
0.4822899 0.37817603 0.19527754 -0.27758354 -0.25656778 -0.3353121 0.6936319 0.30307496
-0.014086815
00000000: 356d 703e b8a0 31bf f33c bebd e218 5e3d
00000010: 55db 99be 3c27 84be b285 21bf 1a7c 103e
00000020: bf26 57bd d3cb c0be ac59 c1be 6ccd 093e
00000030: fda0 573e 1d41 e93d 7ec4 903d 4440 943e
00000040: b4ee f63e 4aa0 c13e d6f6 473e 6e1f 8ebe
00000050: da5c 83be 07ae abbe dc91 313f a42c 9b3e
00000060: 62cc 66bc

hidden_layers.3.weight f4 [25, 25]
-0.043774568 0.1628555 -0.29819238 0.1312321 1.0069722 -0.5993051 -0.096712545 -0.46093455
0.78598666 -0.88052213 -0.71757644 1.0605029 -2.0622864 -0.18622972 0.18110037 0.32656983
-0.11516099 0.48677787 0.2690181 -0.018137453 1.6899465 -0.4165043 0.17109914 0.70703363
-0.38135344 -0.6073841 0.15713264 -0.66508573 1.1105527 -0.14218025 -0.12995023 -0.68365014
0.29126066 0.28480527 -0.025223771 0.8932893 -0.04248031 0.28745967 0.1951653 -0.71863407
-0.6115624 -0.34983954 0.5543037 0.43032572 0.8317615 0.89710045 0.16918708 -0.28612223
-0.26795036 -0.09547441 0.02276349 -0.8294809 -0.19450659 0.39230838 0.45164075 0.0045336653
0.15686831 0.41826606 0.6184792 0.031991754 -0.07126868 -0.5624098 -0.28018045 0.06699962
0.25524357 -0.12560803 0.29849064 0.1577508 0.12548009 -0.81440324 -0.14359936 -0.19164068
0.62738943 0.0018583077 0.15092044 0.063469484 0.24913663 0.122756995 -0.40716237 0.22215162
0.103169665 0.3613454 -0.2618529 -0.45350322 -0.011847659 0.11763377 -0.3159533 0.15058112
-1.0378201 -0.22411923 -0.6813818 0.29940036 -0.40627173 -0.7688064 0.3037983 1.6844847
-0.79937536 0.051947925 -0.24934426 0.393983 -0.44243556 -0.6588974 -0.38170087 -0.61799043
-0.10195564 0.2905825 0.7668648 -0.25100866 -0.29740065 -0.048499387 -0.63442504 -0.3964603
-0.12786868 0.6536548 0.77391756 0.38237724 -0.67016166 -0.43212286 0.35339937 0.03234689
-0.17514183 -0.29687122 0.86609185 0.51398045 0.55992156 -0.22740364 0.28804985 0.06311532
-0.9266904 -0.29294434 0.074935265 0.18844664 0.16100717 -0.3453361 -0.33529258 -0.23623273
-0.30435815 0.5534854 0.26134253 0.8278524 -0.33031026 0.044766948 -0.35012046 -0.2460113
0.018272966 0.80427504 0.18619727 -0.5731793 0.5167842 0.25386792 -0.17863147 0.37245786
0.20049728 0.33603653 0.22884828 -0.2510734 0.3334546 -0.06324323 -0.31484273 -0.22971305
0.37916985 0.0608203 -0.44905066 0.24958505 -0.89058095 0.55120647 -0.16764675 0.49884832
0.24136418 -0.19008903 -0.34272486 0.2120688 -0.32751894 -0.13950345 -0.5545576 0.368805
-0.45698985 -0.1829777 -0.02380657 -0.18170622 0.093253165 -0.2353286 0.677906 0.2662508
-0.2647188 0.17059274 0.19200908 -0.44676444 0.26657775 0.38883314 0.13166355 0.5062015
0.3538498 0.6246611 -0.06604079 0.12699991 0.29963684 0.43795237 0.5821672 -0.01330506
0.2381084 0.8708192 -0.17934452 0.16700934 0.66910034 0.81036943 0.17712918 -0.7930454
0.013000319 0.018366748 -0.00037714132 0.24952361 -0.3072178 0.038227607 -0.2742247 0.56691074
-0.20069584 0.4187588 -0.12352476 0.68223566 0.54565924 -0.28783387 -0.6036828 0.30325976
0.10793336 0.12515266 -0.88563216 -0.21139577 -0.9058524 0.7504318 0.38576284 0.5485932
0.24295452 -0.3837484 -0.012907958 -0.84855753 0.15509775 0.8496482 0.109299414 -0.07512906
0.025814818 -0.5919865 0.088707305 0.43100396 0.4805902 0.19768535 -0.6569172 -0.5567926
-0.42078862 -0.07243382 -0.3561933 0.11352802 -0.19666632 -0.018714033 0.71942586 -0.30799767
00000000: f64c 33bd 98c3 263e acac 98be b561 063e
00000010: 77e4 803f 0f6c 19bf 3a11 c6bd 9dff ebbe
00000020: 6c36 493f e669 61bf 17b3 37bf 8fbe 873f
00000030: 80fc 03c0 01b3 3ebe 6072 393e 2934 a73e
00000040: 86d9 ebbd f33a f93e bebc 893e ff94 94bc
00000050: 2b50 d83f 0d40 d5be 9d34 2f3e 2800 353f
00000060: c240 c3be 867d 1bbf 61e7 203e 0f43 2abf
00000070: 9726 8e3f b397 11be ac11 05be b203 2fbf
00000080: 1e20 953e ffd1 913e 15a2 cebc 9cae 643f
00000090: d5ff 2dbd ea2d 933e 6ad9 473e 67f8 37bf
000000a0: 5a8f 1cbf 2b1e b3be d9e6 0d3f a753 dc3e
000000b0: 52ee 543f 60a8 653f 613f 2d3e 9d7e 92be
000000c0: ca30 89be 1688 c3bd 807a ba3c dc58 54bf
000000d0: bc2c 47be a5dc c83e 753d e73e 248f 943b
000000e0: 16a2 203e f826 d63e a754 1e3f c909 033d
000000f0: 50f5 91bd 17fa 0fbf d073 8fbe 1937 893d
00000100: 49af 823e 649f 00be c4d3 983e 6d89 213e
00000110: da7d 003e bb7c 50bf b60b 13be 743d 44be
00000120: 989c 203f 7692 f33a e38a 1a3e 4afc 813d
00000130: ac1d 7f3e 0568 fb3d 9677 d0be b77b 633e
00000140: 9e4a d33d 4402 b93e 9511 86be 9331 e8be
00000150: af1c 42bc f9e9 f03d a2c4 a1be f031 1a3e
00000160: 4ad7 84bf 837f 65be 0a6f 2ebf 014b 993e
00000170: d902 d0be 7fd0 44bf 738b 9b3e 329d d73f
00000180: dda3 4cbf 59c7 543d 1a54 7fbe 24b8 c93e
00000190: ea86 e2be 80ad 28bf 4c6e c3be 9f34 1ebf
000001a0: 1ece d0bd 3bc7 943e 4051 443f 3584 80be
000001b0: e644 98be 4ba7 46bd ae69 22bf d8fc cabe
000001c0: 02f0 02be ec55 273f 761f 463f f3c6 c33e
000001d0: b78f 2bbf 353f ddbe c3f0 b43e 2c7e 043d
000001e0: 6158 33be 81ff 97be 32b8 5d3f 3994 033f
000001f0: 0557 0f3f 80dc 68be 457b 933e 9b42 813d
00000200: 953b 6dbf cdfc 95be a977 993d 28f8 403e
00000210: 10df 243e e5cf b0be 78ab abbe fee6 71be
00000220: d5d4 9bbe 38b1 0d3f b0ce 853e 23ee 533f
00000230: 6d1e a9be 8c5d 373d fd42 b3be 63ea 7bbe
00000240: 30b1 953c f8e4 4d3f 7faa 3e3e e1bb 12bf
00000250: f84b 043f fafa 813e 2beb 36be ccb2 be3e
00000260: 294f 4d3e fb0c ac3e 3457 6a3e b18c 80be
00000270: 90ba aa3e ab85 81bd 1133 a1be e639 6bbe
00000280: 8d22 c23e b51e 793d f8e9 e5be 3993 7f3e
00000290: 1dfd 63bf de1b 0d3f 97ab 2bbe 0c69 ff3e
000002a0: 2c28 773e b3a6 42be a279 afbe 9028 593e
000002b0: 90b0 a7be fed9 0ebe 7df7 0dbf 02d4 bc3e
000002c0: 93fa e9be 825e 3bbe ff05 c3bc 3211 3abe
000002d0: 84fb be3d fbf9 70be 3f8b 2d3f 0652 883e
000002e0: 3989 87be ddaf 2e3e 079e 443e 4fbe e4be
000002f0: e17c 883e 2315 c73e cfd2 063e 6c96 013f
00000300: cd2b b53e cae9 1f3f 6540 87bd 440c 023e
00000310: 006a 993e 4b3b e03e e908 153f 77fd 59bc
00000320: b0d2 733e 02ee 5e3f 17a6 37be 7f04 2b3e
00000330: 294a 2b3f 5f74 4f3f 5a61 353e 0605 4bbf
00000340: 4aff 543c dd75 963c 0dbb c5b9 1e83 7f3e
00000350: a74b 9dbe 8d94 1c3d 2e67 8cbe 1021 113f
00000360: 3683 4dbe 8e67 d63e 8dfa fcbd ffa6 2e3f
00000370: 53b0 0b3f f65e 93be f58a 1abf dd44 9b3e
00000380: 2a0c dd3d 0528 003e cab8 62bf 2278 58be
00000390: f1e5 67bf 4c1c 403f b582 c53e 9b70 0c3f
000003a0: 12c9 783e ac7a c4be e67b 53bc 113b 59bf
000003b0: f2d1 1e3e 8b82 593f 5fd8 df3d 44dd 99bd
000003c0: 9979 d33c 6d8c 17bf 2dac b53d 8dac dc3e
000003d0: eb0f f63e 076e 4a3e ba2b 28bf f689 0ebf
000003e0: 9b71 d7be 2f58 94bd f85e b6be 6181 e83d
000003f0: e562 49be 2c4e 99bc 4b2c 383f dfb1 9dbe

hidden_layers.3.bias f4 [25]
0.36701524 -0.060039055 0.629841 -0.75482917 -0.24466462 -0.0013212375 -0.60517186 0.36963347
-0.7157298 0.10583328 -0.15873004 -0.21978085 0.18531488 0.20999669 0.5025943 -0.7614443
-0.26597512 -0.5147532 0.1185516 -0.22095186 0.061482195 0.02263458 0.19181919 0.22092408
0.27295998
00000000: 6ce9 bb3e 83eb 75bd 433d 213f 7c3c 41bf
00000010: 5d89 7abe 602d adba 8bec 1abf 9940 bd3e
00000020: 113a 37bf 1ebf d83d 218a 22be 3b0e 61be
00000030: 2fc3 3d3e 5f09 573e 05aa 003f 03ee 42bf
00000040: e42d 88be dec6 03bf 2ecb f23d 3441 62be
00000050: c1d4 7b3d 286c b93c 406c 443e ec39 623e
00000060: 69c1 8b3e

hidden_layers.4.weight f4 [25, 25]
0.24350734 -0.19670606 0.6472999 -0.21390727 0.10155934 -0.4875828 0.19833547 0.2132632
0.18473144 -0.12863314 -0.28739542 0.1336979 0.36901057 0.09168467 -0.40366808 0.12554488
0.068985656 0.51071095 0.24715438 0.1100232 -0.16049325 0.2527152 -0.064686425 0.310777
0.3623053 -0.50193727 0.039307393 -0.40445176 -0.39420462 -0.031743385 0.30341125 0.1348195
0.5384681 -0.3908977 -0.2022553 -0.13259579 0.13762511 0.046635523 0.57101333 -0.23537287
-0.40788865 -0.04450484 0.21914701 -0.013076954 0.28360137 0.06826525 0.5961154 0.45548773
0.72102445 0.049476787 -1.194428 -0.8903415 0.18696798 0.4417074 0.56474197 0.6364608
0.22993536 0.35471758 0.11318717 -0.24146752 1.374389 0.35671335 0.206818 -0.100949496
0.44219264 0.45343655 0.22434832 0.3408158 0.76205415 -1.306551 -0.32127216 -0.016172787
-0.48068804 -0.36961928 -0.75949734 1.7975245 0.32256317 0.24397473 0.8533577 -0.33777198
-0.30348015 -0.66823894 0.35836533 0.77807784 -0.019023398 -0.4734602 0.93299955 0.21347295
0.22421691 1.511133 0.19208872 -0.25521702 0.3158608 -0.018264554 0.030334214 0.06465649
-0.93275833 -0.5127202 0.53689194 -0.45653513 -0.74681723 0.40612403 0.015826294 -0.8235186
0.09161645 -0.45281065 0.15468685 -0.19042122 0.19837423 -0.18078642 -0.35018167 -0.4125689
-0.5297909 0.18662246 -0.561538 -0.5624607 -0.92989075 0.649917 -0.12864561 -0.828232
0.4231757 0.70710796 -0.7367316 -0.75603074 -0.46283445 -0.44033617 -0.04770478 -0.64170706
0.5069617 -0.21293686 0.6493072 -0.47169077 0.053692855 0.13302106 -0.054467272 0.7611626
-0.099852264 -0.05963791 -0.29079753 -0.2656674 0.18472849 0.2817917 0.2642965 -0.45046675
0.3363294 0.049260076 0.44266173 -0.101531245 -0.8484051 -0.6577715 1.0955989 -0.009242341
-0.22021167 -0.15487641 -0.015753949 -0.5330899 0.23247798 -0.21773867 0.11725333 -0.6390885
0.33096093 -1.6801448 0.0131789185 0.27334622 0.8710553 0.20076431 1.3306514 0.6104354
0.09293412 0.01459249 -0.12099992 0.3306127 0.34327787 -0.57743406 0.56591773 -0.0858444
0.9082587 -0.9544442 0.75415 -0.37240162 0.3161997 -0.27884236 -0.3841201 0.3188498
1.4932544 -1.0049766 1.1278793 0.6112333 0.2868862 1.1440742 1.0331103 -0.4383027
0.22104594 0.32956687 0.503374 0.6674547 -0.49669132 0.16480444 -1.208123 0.6233816
1.0075916 0.22119316 0.6399558 0.8986197 0.035165623 -0.14941822 0.43476316 0.32768133
0.21310392 -0.60514766 0.3815612 0.62013525 -0.5293531 0.53008294 -0.62095904 -0.1971466
-0.62270397 0.08786401 0.14371553 -0.5772285 0.44834846 0.5340302 -0.5346196 -0.46951202
-0.13772221 0.29423177 0.0660789 0.293099 -0.10616379 -1.0803711 -0.21062861 -0.20394424
0.27641913 -0.4002763 -0.24317852 -0.6447829 -0.0051006437 0.28466964 -0.098692924 0.8591246
-0.19719727 0.017279688 -0.6656297 -0.3350988 0.15491918 0.04196724 0.8151257 0.39689448
1.6271619 -0.20122859 0.13793737 0.2927082 0.5611101 -0.45297083 0.19067629 -0.28654206
00000000: fd59 793e 506d 49be 72b5 253f 820a 5bbe
00000010: 58fe cf3d 74a4 f9be 7418 4b3e ab61 5a3e
00000020: 3d2a 3d3e 68b8 03be 7e25 93be 1ae8 083e
00000030: f4ee bc3e 2cc5 bb3d 95ad cebe d68e 003e
00000040: 5a48 8d3d f4bd 023f 0a16 7d3e d853 e13d
00000050: 5858 24be e363 813e 517a 84bd 2a1e 9f3e
00000060: 1580 b93e f67e 00bf ca00 213d 4d14 cfbe
00000070: 30d5 c9be 5a05 02bd b858 9b3e 1f0e 0a3e
00000080: 0cd9 093f be23 c8be 031c 4fbe 31c7 07be
00000090: 99ed 0c3e e404 3f3d ee2d 123f 9605 71be
000000a0: c8d6 d0be b54a 36bd 1368 603e b840 56bc
000000b0: 3334 913e a7ce 8b3d 059b 183f b035 e93e
000000c0: 0f95 383f 2ca8 4a3d 04e3 98bf 6ced 63bf
000000d0: 8974 3f3e 7927 e23e ee92 103f 18ef 223f
000000e0: 2d74 6b3e 8b9d b53e adce e73d 4343 77be
000000f0: fbeb af3f 22a3 b63e 19c8 533e 9cbe cebd
00000100: 1367 e23e d628 e83e 91bb 653e 697f ae3e
00000110: fb15 433f 103d a7bf c97d a4be cb7c 84bc
00000120: be1c f6be bd3e bdbe 6b6e 42bf 4815 e63f
00000130: 0027 a53e 83d4 793e a675 5a3f 73f0 acbe
00000140: c061 9bbe b511 2bbf a97b b73e 1c30 473f
00000150: f5d6 9bbc 6069 f2be 0fd9 6e3f a798 5a3e
00000160: 1e99 653e ce6c c13f e8b2 443e ceab 82be
00000170: 82b8 a13e 8c9f 95bc 757f f83c 9f6a 843d
00000180: 40c9 6ebf a241 03bf c071 093f f9be e9be
00000190: 6a2f 3fbf 7def cf3e 25a6 813c 1dd2 52bf
000001a0: 68a1 bb3d ccd6 e7be 3b66 1e3e c8fd 42be
000001b0: 9d22 4b3e 1320 39be 034b b3be 3b3c d3be
000001c0: 60a0 07bf f519 3f3e f4c0 0fbf 6dfd 0fbf
000001d0: 520d 6ebf f660 263f adbb 03be 0307 54bf
000001e0: 7caa d83e 0705 353f 719a 3cbf 3b8b 41bf
000001f0: a3f8 ecbe be73 e1be 1666 43bd ea46 24bf
00000200: 3ec8 013f 1f0c 5abe ff38 263f 7481 f1be
00000210: 0aed 5b3d ac36 083e 1319 5fbd 8ddb 423f
00000220: 587f ccbd e246 74bd 6ae3 94be 8f05 88be
00000230: 7729 3d3e 0047 903e df51 873e 94a3 e6be
00000240: 5e33 ac3e efc4 493d 8fa4 e23e 9def cfbd
00000250: 1431 59bf b763 28bf 963c 8c3f 306d 17bc
00000260: 2b7f 61be ec97 1ebe 6d0e 81bc 9478 08bf
00000270: b50e 6e3e e3f6 5ebe 8422 f03d 4e9b 23bf
00000280: b673 a93e fc0e d7bf 64ec 573c 09f4 8b3e
00000290: 7bfd 5e3f 2995 4d3e c952 aa3f 7f45 1c3f
000002a0: 3e54 be3d 5715 6f3c cece f7bd 1146 a93e
000002b0: 1ec2 af3e b8d2 13bf fcdf 103f 30cf afbd
000002c0: a483 683f 7556 74bf f90f 413f 6dab bebe
000002d0: ede4 a13e 6dc4 8ebe 64ab c4be 4840 a33e
000002e0: f622 bf3f 13a3 80bf 595e 903f c979 1c3f
000002f0: bfe2 923e 0671 923f f53c 843f 3669 e0be
00000300: de59 623e fdbc a83e 1edd 003f 50de 2a3f
00000310: 534e febe 7fc2 283e c6a3 9abf f095 1f3f
00000320: c3f8 803f 7680 623e 25d4 233f f10b 663f
00000330: d409 103d 1701 19be 4799 de3e d9c5 a73e
00000340: ea37 5a3e f5ea 1abf fd5b c33e 2fc1 1e3f
00000350: af83 07bf 84b3 073f 2cf7 1ebf cce0 49be
00000360: 8769 1fbf 0cf2 b33d 2a2a 133e 3fc5 13bf
00000370: ee8d e53e 34b6 083f d5dc 08bf e163 f0be
00000380: 0d07 0dbe 8ca5 963e 6054 873d 1211 963e
00000390: 676c d9bd 9a49 8abf 07af 57be c2d6 50be
000003a0: cf86 8d3e 04f1 ccbe ca03 79be 7e10 25bf
000003b0: 4d23 a7bb 38c0 913e 841f cabd 97ef 5b3f
000003c0: 15ee 49be 228e 8d3c b566 2abf 1292 abbe
000003d0: 22a3 1e3e d7e5 2b3d 14ac 503f c135 cb3e
000003e0: d746 d03f de0e 4ebe 743f 0d3e d9dd 953e
000003f0: e9a4 0f3f cbeb e7be a540 433e a4b5 92be

hidden_layers.4.bias f4 [25]
-0.05418169 0.1424894 -0.30067432 0.4069675 -0.17852163 -0.44265783 -0.27744767 0.030705063
-0.06554108 0.8021785 0.09069014 -0.16612129 0.12463428 -0.04145322 -0.32496765 -0.22426489
0.4466613 -0.41776448 0.5821393 -0.03715382 0.34254834 0.82816434 0.15139882 -0.042356856
0.005735932
00000000: 9fed 5dbd bee8 113e fcf1 99be 0b5e d03e
00000010: 60ce 36be 0ca4 e2be 9f0d 8ebe 2f89 fb3c
00000020: 673a 86bd 925b 4d3f c1bb b93d b31b 2abe
00000030: 4240 ff3d daca 29bd 2962 a6be b2a5 65be
00000040: cab0 e43e 3ae5 d5be 1507 153f 9b2e 18bd
00000050: 7f62 af3e 9402 543f 4b08 1b3e 627e 2dbd
00000060: 7cf4 bb3b

output_layer.weight f4 [1, 25]
0.23236647 0.5998636 -1.5945562 1.7471466 -0.8121637 0.5265807 -1.6940479 2.2580593
-1.1929574 0.8855478 -0.039609153 0.721239 0.26333722 0.06317955 0.69261616 -1.7166946
0.8624426 -1.205907 0.8435943 -0.7054592 0.4615006 0.4341401 -0.29263696 1.1007429
0.6948799
00000000: 7af1 6d3e a990 193f 6b1a ccbf 80a2 df3f
00000010: f6e9 4fbf fecd 063f 90d6 d8bf 0b84 1040
00000020: d4b2 98bf 43b3 623f 353d 22bd 1ea3 383f
00000030: 23d4 863e 4864 813d 4b4f 313f a6bc dbbf
00000040: 0ac9 5c3f 295b 9abf ccf5 573f f998 34bf
00000050: cf49 ec3e 9c47 de3e 83d4 95be 25e5 8c3f
00000060: a6e3 313f
