models/task_2/ts.pt (torch, 8882 bytes, 9 tensors)

input_layer.weight f4 [20, 2]
0.8539762 1.069755 -0.6202825 0.6315942 0.12939954 1.1287711 -0.45654812 0.55839545
0.60006523 -0.5141034 1.171644 0.87978864 0.48289683 0.78787047 0.23884892 0.48518783
1.124951 0.59635234 1.618843 0.08553431 -0.19006293 -0.6702863 0.19508119 0.09638791
-0.4206929 -0.26594445 0.13800517 0.07419705 1.8415797 -0.5556792 1.1789428 -0.459009
0.8262962 -0.5988479 -0.05222407 0.7347927 0.38502103 1.9888304 -0.52782416 -1.3486736
00000000: 2f9e 5a3f bbed 883f d5ca 1ebf 28b0 213f
00000010: 5081 043e 927b 903f adc0 e9be 01f3 0e3f
00000020: e09d 193f 489c 03bf 6ef8 953f d439 613f
00000030: 413e f73e e1b1 493f d094 743e 8a6a f83e
00000040: 65fe 8f3f 8caa 183f 3f36 cf3f 9d2c af3d
00000050: db9f 42be e297 2bbf 5dc3 473e 0667 c53d
00000060: 0f65 d7be df29 88be 3a51 0d3e 9ff4 973d
00000070: e2b8 eb3f fe40 0ebf 99e7 963f 3a03 ebbe
00000080: 2688 533f 194e 19bf e8e8 55bd 601b 3c3f
00000090: 7a21 c53e ff91 fe3f 7c1f 07bf 56a1 acbf

input_layer.bias f4 [20]
-0.73454374 -0.37559897 -0.00035643423 1.1694844 -1.507916 1.4200424 -0.13819747 0.7982119
0.8301094 -0.30407003 1.2903593 0.6069509 -0.79422617 -1.0650334 0.8123103 0.7604826
-1.2663547 -0.07168526 -1.1440487 2.587422
00000000: 0f0b 3cbf 824e c0be cbdf bab9 aab1 953f
00000010: 6403 c1bf f3c3 b53f a383 0dbe 9d57 4c3f
00000020: 0d82 543f 11af 9bbe 7e2a a53f 2261 1b3f
00000030: 6852 4bbf 0453 88bf 91f3 4f3f fdae 423f
00000040: e917 a2bf b9cf 92bd 3070 92bf 5298 2540

hidden_layers.0.weight f4 [20, 20]
0.39567772 -0.2462338 0.28929943 0.56644756 0.53257734 -0.28657535 0.36689773 0.13163382
0.3412256 -0.15854038 -0.58454204 -0.14532334 -0.5597176 0.5390276 0.087173864 0.18735518
0.37799892 -0.109131694 0.33718154 -0.44759628 -0.14072177 -0.10852319 0.2361233 0.060915984
-0.21241234 -0.21901055 0.4076918 -0.5002252 -0.49577412 -0.49530286 0.685994 0.29788935
0.66956204 -0.54680395 -0.8869033 -0.8356242 -0.6764672 0.47174662 0.21248654 0.49920654
-0.7248444 -0.66631526 0.36799878 -0.3723207 0.39968133 -0.49840093 0.14308776 -0.6323926
-0.63774973 0.119762644 0.19550803 -0.31758258 0.80033094 0.5150216 -0.28850028 -0.34856364
0.3809892 -0.3938333 -0.65640646 -0.4552987 0.012885668 -0.42831188 -0.9940653 -0.9695666
0.7769253 -0.1184472 -0.34704986 0.034392886 -0.22644557 -1.1129421 0.46860418 -0.5235991
-0.067652404 -0.85957414 0.09273563 0.32571548 0.6386584 -1.147051 -1.078534 -0.3118006
-0.21229972 -0.23669316 0.18124478 -0.23684576 -0.5409094 -0.60586834 -0.51554894 -0.7250126
0.3516691 0.10435905 0.8937299 0.33823425 -0.23311943 0.69638246 0.00538763 -0.22771837
-0.86543244 -0.5393875 -0.4096365 0.21277703 0.3687168 -0.44625023 0.5736698 -0.43448696
-0.16062222 0.07078773 0.3581345 0.50235116 0.5169899 -0.6163336 0.15159954 -0.31451687
-0.008756388 -0.48798242 0.51541275 -0.5166193 0.1815222 0.4822601 0.34578988 -0.27566835
0.8991475 0.57294554 0.14233153 -0.3439012 0.41451094 0.23030974 -0.18980052 0.6307396
0.4339639 -0.21303622 -0.02369122 0.36001688 -0.00050346635 0.1638784 -0.5702217 0.022250045
-0.72336125 -0.613741 1.1297023 -1.4813728 0.4114749 0.50518674 0.59491473 -0.18924104
0.5724189 0.56013346 0.2692818 0.13640611 0.07519779 0.33465523 -0.005296263 -0.17416109
0.15877512 0.66513336 0.049023323 0.06729143 -0.08900851 0.55139494 0.18799904 0.40689608
-0.670893 0.30261767 0.73589694 0.76536524 -0.94695187 -0.37984067 -0.56879556 -0.6506281
-0.23286381 0.14852077 0.5112287 0.5201144 -0.48842055 -0.2243228 -0.12635157 0.53523505
-0.7181503 0.09814868 0.6144856 -0.45199594 -0.6961843 0.15870944 -1.1255335 -0.3701292
-0.9365624 0.18083294 0.52213275 0.118305445 -0.683779 -0.8405192 -0.7800691 0.30577055
0.5605948 -0.02230729 0.30770922 -0.07943521 0.43001428 -1.9676151 -0.98060745 -1.6234748
0.0054686572 -0.72445846 -0.96946937 -1.4903696 -0.18608281 -0.72815335 -0.5189967 0.3408687
-0.42707092 -0.2741241 -0.916606 -0.7726194 0.048439648 -1.4915395 -0.33559772 -0.809
1.2861453 -1.5866681 0.83731276 -0.53130406 0.9377703 -0.34729543 0.5965194 -0.16144876
0.15763547 0.83579993 0.026384301 0.13263935 0.05289834 -0.3581334 0.24458067 -0.2898997
0.14212704 0.41623223 0.48190472 -0.18972038 -0.32220262 0.5578127 0.5372581 -0.51686054
-0.23802544 -0.040791556 0.04943667 -0.36613676 -0.52579534 -0.24378204 -0.87285626 0.5082945
0.51021606 0.0867659 -0.51741683 -0.13908964 -0.4741423 -0.91332906 0.04265913 -0.32445782
00000000: 4596 ca3e b724 7cbe 0e1f 943e b502 113f
00000010: fd56 083f 01ba 92be 05da bb3e 04cb 063e
00000020: 1fb5 ae3e 6958 22be 8ca4 15bf a4cf 14be
00000030: a749 0fbf b6fd 093f 3688 b23d 09da 3f3e
00000040: 1389 c13e 7080 dfbd 0fa3 ac3e 572b e5be
00000050: 5e19 10be 6841 debd 4eca 713e 0a83 793d
00000060: 9f82 59be 4d44 60be fbbc d03e c20e 00bf
00000070: 1bd6 fdbe 5698 fdbe 4e9d 2f3f f484 983e
00000080: 6b68 2b3f 58fb 0bbf 180c 63bf 78eb 55bf
00000090: f42c 2dbf c688 f13e 1296 593e 0098 ff3e
000000a0: 678f 39bf a393 2abf 566a bc3e d2a0 bebe
000000b0: 08a3 cc3e 682e ffbe 9985 123e 7be4 21bf
000000c0: 9143 23bf 1e46 f53d 4233 483e 2f9a a2be
000000d0: 7de2 4c3f 75d8 033f 4fb6 93be ef76 b2be
000000e0: 0411 c33e 85a4 c9be 410a 28bf e91c e9be
000000f0: 691e 533c b24b dbbe 107b 7ebf 8435 78bf
00000100: 94e4 463f 7294 f2bd 85b0 b1be 8edf 0c3d
00000110: 59e1 67be e374 8ebf e3ec ef3e 970a 06bf
00000120: 588d 8abd 0d0d 5cbf 2eec bd3d 2ec4 a63e
00000130: 1e7f 233f 91d2 92bf 670d 8abf 54a4 9fbe
00000140: 1965 59be b15f 72be 3b98 393e b287 72be
00000150: 0a79 0abf 301a 1bbf 04fb 03bf 6d9a 39bf
00000160: f90d b43e 33ba d53d 7ccb 643f 0a2d ad3e
00000170: dcb6 6ebe 1f46 323f b78a b03b 012f 69be
00000180: fb8c 5dbf 4d15 0abf e0bb d1be 39e2 593e
00000190: 73c8 bc3e e97a e4be 06dc 123f 1375 debe
000001a0: 277a 24be 28f9 903d 685d b73e 169a 003f
000001b0: 7359 043f 0ac8 1dbf e93c 1b3e 5b08 a1be
000001c0: f476 0fbc d5d8 f9be 17f2 033f 2a41 04bf
000001d0: f5e0 393e ccea f63e 5f0b b13e 6724 8dbe
000001e0: 882e 663f 8fac 123f 5bbf 113e d113 b0be
000001f0: c73a d43e 51d6 6b3e 115b 42be 2778 213f
00000200: 8430 de3e 2b26 5abe 1714 c2bc 2254 b83e
00000210: 0efb 03ba bdcf 273e 0dfa 11bf ba45 b63c
00000220: 342e 39bf 211e 1dbf 169a 903f a09d bdbf
00000230: d7ac d23e eb53 013f 554c 183f 67c8 41be
00000240: 0c8a 123f e864 0f3f 4edf 893e 0bae 0b3e
00000250: 4d01 9a3d ee57 ab3e 468c adbb 4957 32be
00000260: f295 223e 2e46 2a3f aecc 483d 17d0 893d
00000270: 184a b6bd 3828 0d3f d282 403e af54 d03e
00000280: a5bf 2bbf b4f0 9a3e be63 3c3f faee 433f
00000290: 706b 72bf 7a7a c2be 969c 11bf 908f 26bf
000002a0: da73 6ebe d415 183e e2df 023f 3826 053f
000002b0: 4212 fabe e0b4 65be 4e62 01be 2a05 093f
000002c0: b3d8 37bf 2d02 c93d ee4e 1d3f 036c e7be
000002d0: 2239 32bf ba84 223e 7b11 90bf 9381 bdbe
000002e0: 8ec2 6fbf 452c 393e 7eaa 053f 204a f23d
000002f0: 240c 2fbf 442c 57bf 9cb2 47bf f58d 9c3e
00000300: 2483 0f3f c7bd b6bc 108c 9d3e edae a2bd
00000310: d52a dc3e d0da fbbf 1709 7bbf 06ce cfbf
00000320: 6c32 b33b 1c76 39bf 252f 78bf 6ec4 bebf
00000330: 7e8c 3ebe 4268 3abf f8dc 04bf 5886 ae3e
00000340: 0aa9 dabe fe59 8cbe b1a6 6abf 63ca 45bf
00000350: a768 463d c4ea bebf 77d3 abbe a01a 4fbf
00000360: 69a0 a43f f117 cbbf 215a 563f 8b03 08bf
00000370: b711 703f b5d0 b1be 7fb5 183f d352 25be
00000380: 316b 213e fcf6 553f e423 d83c 9cd2 073e
00000390: eeab 583d 435d b7be 5b73 7a3e bc6d 94be
000003a0: c089 113e 641c d53e 37bc f63e 0f46 42be
000003b0: bef7 a4be d0cc 0e3f bf89 093f f950 04bf
000003c0: f1bc 73be 0c15 27bd 1b7e 4a3d 4776 bbbe
000003d0: 869a 06bf 00a2 79be 8273 5fbf 971f 023f
000003e0: 859d 023f 52b2 b13d 6e75 04bf 846d 0ebe
000003f0: c8c2 f2be efcf 69bf 57bb 2e3d 561f a6be

hidden_layers.0.bias f4 [20]
-0.047468793 -0.08108508 -0.521608 -0.27883485 -0.25460923 -0.019056812 -0.18144739 0.38799536
-0.06624646 0.09016609 -0.4278478 0.46459582 0.38996136 -0.13647987 -0.19649658 -0.13933653
-0.013974919 0.22807568 -0.6172672 -0.53925353
00000000: a36e 42bd ef0f a6bd 1a88 05bf 71c3 8ebe
00000010: 245c 82be 081d 9cbc 58cd 39be 54a7 c63e
00000020: 39ac 87bd 00a9 b83d de0e dbbe 81df ed3e
00000030: 04a9 c73e 61c1 0bbe 6636 49be 3cae 0ebe
00000040: 0ff7 64bc ac8c 693e 3905 1ebf 850c 0abf

hidden_layers.1.weight f4 [20, 20]
-0.09868777 0.60329324 0.12441059 0.6696858 0.61914265 -0.4096811 -0.18744496 0.36915842
0.44105715 -0.41806257 0.17867172 -0.75781405 -0.652836 -0.07477712 0.2671011 0.19594198
0.13728438 0.60926014 0.23882952 -0.2961704 -0.047671415 -0.26078516 0.059903655 -0.49924517
0.045209695 -0.04968449 -0.8179241 -0.6087454 0.69970185 1.0854601 2.1994495 0.45377856
0.82086164 -0.7658425 -0.5274562 0.30181548 -1.0061716 -0.6975341 -0.37070888 -0.095971234
-0.20201616 0.34305438 0.10330544 0.60552806 0.2186721 -0.9712658 -0.09268573 -0.2146393
1.0743088 0.96153 -0.25432968 -0.29267168 -0.27981073 -0.3194166 0.49436587 0.50389165
0.88087845 0.7964969 0.36359745 0.281795 -0.22974536 -0.25422204 0.35943735 0.7341118
0.7093112 0.21199068 -0.7550097 -0.6327199 -0.02205327 1.0833515 0.692585 -0.54523635
0.15416357 -0.6881639 -0.40754262 -0.3815801 0.19201368 -0.76913095 0.6303373 0.19667302
-0.087825336 0.43066108 0.1864834 0.6054227 0.5269221 -0.6394406 0.2198417 0.029666165
0.16593108 0.27875552 0.5519198 -0.24574135 -0.13220698 0.4159715 0.459848 0.079998754
-0.5627789 -0.070263185 -0.23219834 0.6659983 -0.55417925 0.26284245 -0.07122676 0.17908695
0.8129452 -0.11101281 0.6119834 0.43763947 0.84242404 -0.17859344 -0.009156601 0.084338084
-0.16535576 0.19127028 0.14107548 -0.25460926 0.012794822 -0.011876405 0.3697717 0.74961436
0.29432857 0.875949 -0.0004079239 -0.94834095 -0.3118756 -0.57092154 -0.9905607 0.075239845
-0.19705956 -1.6711814 -1.2873318 -0.94180804 -0.4695638 1.7623374 0.7927187 -0.17601414
-0.03924395 1.4212737 -0.21074918 -0.18733203 0.223816 -0.48972324 -0.020513546 0.55593365
0.018831601 0.26124102 0.026487194 -0.03489148 -0.03624623 0.38342085 0.77713335 0.34466892
-0.6228051 1.0683848 -0.42071286 -0.5384799 -0.99080354 -1.5152203 0.31905088 0.02927771
-0.5407939 0.44447374 -0.70336044 -0.2958442 0.1273857 -0.73190886 -0.21802956 -0.25364572
0.66565615 0.6433386 0.3260606 -0.80845565 -0.39518398 0.58927625 0.21512873 0.15284601
0.19247238 -0.42212588 -0.29789415 0.6647654 -0.08666224 -0.031732604 -0.6102605 -0.28666353
-0.1200464 -0.35248128 0.11877727 0.32411125 -0.6918162 0.0015650017 -0.43254048 -0.36495492
0.08436947 0.44895697 -0.18999426 -0.3147339 -0.62023634 -0.20935138 -0.66553944 -0.22698466
0.37184516 -0.84057534 0.3999197 0.28304413 -0.8793897 -0.05491225 -0.4626638 -0.12728731
-0.3398979 0.58507675 0.88563126 -0.32537025 0.66581196 0.22390236 -0.21402991 0.37973094
-1.7230533 -1.4842479 -0.34984902 0.2581944 -0.30661145 0.15342431 -0.9417173 0.09372318
-0.00847473 0.17032008 0.28296793 0.101672836 0.15629274 -1.2675102 -0.49788225 0.055709157
0.6326559 0.6608177 -0.5255161 0.2894579 -0.24775137 -0.1257297 -0.8490883 -0.3560121
0.3338507 0.3813253 -0.4725201 -0.1327282 -0.3179371 0.6045495 -0.87656665 -0.18027122
-0.62592334 -0.15408386 0.726706 0.5014166 0.44326517 1.1084796 0.17312068 0.32780144
00000000: d01c cabd 6d71 1a3f fbca fe3d 8770 2b3f
00000010: 2280 1e3f b9c1 d1be 92f1 3fbe 5502 bd3e
00000020: 3ed2 e13e 4c0c d6be b8f5 363e 1a00 42bf
00000030: 4320 27bf bf24 99bd 7ac1 883e 04a5 483e
00000040: 4794 0c3e 79f8 1b3f ba8f 743e a6a3 97be
00000050: 1a43 43bd a285 85be 895d 753d 109d ffbe
00000060: cd2d 393d f781 4bbd 7963 51bf bdd6 1bbf
00000070: a91f 333f 5bf0 8a3f c8c3 0c40 aa55 e83e
00000080: fd23 523f 410e 44bf 5f07 07bf 8f87 9a3e
00000090: 3bca 80bf 9891 32bf 8ecd bdbe 918c c4bd
000000a0: 53dd 4ebe d3a4 af3e cd91 d33d e303 1b3f
000000b0: 94eb 5f3e e0a4 78bf 04d2 bdbd 68ca 5bbe
000000c0: f382 893f d526 763f 8037 82be 10d9 95be
000000d0: 5a43 8fbe 938a a3be 861d fd3e 0bff 003f
000000e0: 4081 613f 39e7 4b3f 7229 ba3e 6f47 903e
000000f0: 5e42 6bbe 6429 82be 2c08 b83e c0ee 3b3f
00000100: 6b95 353f 1614 593e 5148 41bf eef9 21bf
00000110: 0fa9 b4bc 43ab 8a3f 404d 313f 9c94 0bbf
00000120: 0edd 1d3e 822b 30bf 6da9 d0be 785e c3be
00000130: 3c9f 443e c4e5 44bf c95d 213f a764 493e
00000140: c5dd b3bd 9c7f dc3e 81f5 3e3e fbfc 1a3f
00000150: 5ee4 063f 61b2 23bf 2f1e 613e 7506 f33c
00000160: d6e9 293e 0bb9 8e3e 9e4a 0d3f 9fa3 7bbe
00000170: 4461 07be 37fa d43e 3271 eb3e 63d6 a33d
00000180: 4712 10bf 25e6 8fbd 67c5 6dbe dd7e 2a3f
00000190: b1de 0dbf 4993 863e 56df 91bd 9262 373e
000001a0: 2d1d 503f af5a e3bd f2aa 1c3f 4812 e03e
000001b0: 1aa9 573f 33e1 36be 9105 16bc 72b9 ac3d
000001c0: 0553 29be 5bdc 433e 1776 103e 255c 82be
000001d0: 60a1 513c 4195 42bc b752 bd3e bae6 3f3f
000001e0: 3cb2 963e 323e 603f 9ede d5b9 79c6 72bf
000001f0: 29ae 9fbe ea27 12bf 6395 7dbf 5917 9a3d
00000200: fbc9 49be 46e9 d5bf 4ac7 a4bf 551a 71bf
00000210: ab6a f0be 4694 e13f 9def 4a3f 0d3d 34be
00000220: 44be 20bd 4cec b53f a2ce 57be f8d3 3fbe
00000230: 0630 653e 01bd fabe 060c a8bc ab51 0e3f
00000240: bb44 9a3c 62c1 853e acfb d83c 5eea 0ebd
00000250: ed76 14bd bd4f c43e 36f2 463f 7278 b03e
00000260: 2870 1fbf d5c0 883f ad67 d7be d2d9 09bf
00000270: 4da5 7dbf bdf2 c1bf a35a a33e cfd7 ef3c
00000280: 7871 0abf 1092 e33e 6e0f 34bf e478 97be
00000290: 6671 023e 615e 3bbf 2443 5fbe dadd 81be
000002a0: 7168 2a3f d7b1 243f 6af1 a63e f3f6 4ebf
000002b0: 8e55 cabe cfda 163f b54a 5c3e aa83 1c3e
000002c0: 7b17 453e e220 d8be 9585 98be 112e 2a3f
000002d0: f97b b1bd 0cfa 01bd 083a 1cbf 90c5 92be
000002e0: e3da f5bd 6d78 b4be 7f41 f33d e9f1 a53e
000002f0: de1a 31bf be20 cd3a f275 ddbe 5fdb babe
00000300: e7c9 ac3d b0dd e53e db8d 42be cd24 a1be
00000310: cfc7 1ebf 3560 56be cb60 2abf ab6e 68be
00000320: 7d62 be3e f22f 57bf 46c2 cc3e 29eb 903e
00000330: af1f 61bf abeb 60bd 45e2 ecbe 9b57 02be
00000340: 1907 aebe 97c7 153f bbb8 623f ee96 a6be
00000350: a772 2a3f a946 653e a82a 5bbe 186c c23e
00000360: 038d dcbf d6fb bdbf 691f b3be 0e32 843e
00000370: 2dfc 9cbe 431b 1d3e 6314 71bf f0f1 bf3d
00000380: 98d9 0abc 6368 2e3e 2ce1 903e d939 d03d
00000390: 340b 203e c63d a2bf 6cea febe 492f 643d
000003a0: bdf5 213f 592b 293f 3988 06bf d333 943e
000003b0: 89b2 7dbe 49bf 00be da5d 59bf 3847 b6be
000003c0: 7bee aa3e 123d c33e 28ee f1be e7e9 07be
000003d0: a7c8 a2be c2c3 1a3f ac66 60bf 0599 38be
000003e0: 833c 20bf 29c8 1dbe 6809 3a3f d75c 003f
000003f0: a7f3 e23e a9e2 8d3f 8c46 313e 97d5 a73e

hidden_layers.1.bias f4 [20]
-0.10228383 0.10496069 -0.62648225 -0.2697201 -0.15144852 -0.17925683 -0.17172888 -0.043265074
0.1468982 0.30192307 0.13553034 0.35782844 0.24421181 0.11604157 -0.63952124 -0.05291108
0.255014 0.058630493 -0.13446659 0.33690122
00000000: 2f7a d1bd a1f5 d63d 2461 20bf c118 8abe
00000010: 5215 1bbe 1a8f 37be b2d9 2fbe b836 31bd
00000020: 7b6c 163e a995 9a3e 77c8 0a3e 4a35 b73e
00000030: a912 7a3e 34a7 ed3d aab7 23bf 4ab9 58bd
00000040: 3291 823e 8726 703d 9cb1 09be 517e ac3e

hidden_layers.2.weight f4 [20, 20]
0.543525 -2.1115425 -0.052606333 -0.26810983 -0.11358432 -0.07729411 0.5205395 -0.7431846
0.5961043 0.4690003 0.06197232 -0.71381 -0.9512079 0.93756866 -0.21971425 0.2990057
0.10405272 -0.10854365 0.65107906 0.48500633 -0.17017801 -0.9881734 0.21480723 -0.48791945
-0.5751293 0.24737419 1.0269173 0.101526015 -0.22588803 -0.35032645 -0.41583964 0.9281749
0.6760721 0.3115263 -0.46562856 -0.46674594 0.6535761 -0.09447923 0.1736902 0.08909348
0.2844859 0.28622395 0.104303025 0.41392094 0.4125001 0.5902925 0.48745263 -0.164035
-0.52138937 0.11348784 0.0058567887 -0.17895688 -0.116632685 0.03598214 0.49190968 0.20631331
-0.23630846 -0.26399848 -0.1554132 -0.25377458 0.8244837 0.16733503 0.57845783 0.2903155
0.30682296 0.41191375 -0.5736648 -0.09879807 0.14547253 -0.6113852 -0.64584893 0.3148203
0.40893656 0.14789711 0.8175297 -0.009227711 -0.32878146 0.17759322 0.08262196 -0.34753904
-0.36024186 1.827866 -0.54213303 0.21909098 0.8242354 0.056455523 -1.5722914 0.84972215
-0.21706367 -0.13924305 1.0697114 -0.7013133 -0.90027505 -0.5591006 0.04918532 -0.7505558
-0.31954017 1.4939263 0.5834496 -0.06949882 -0.53564423 -0.10316867 -0.25873798 -0.28078574
-0.6006458 0.10730111 -0.5042703 -0.45705488 -0.5472219 0.30492216 -0.32864472 -0.19315985
0.501464 0.36758986 0.3506318 -0.6804558 -0.4324569 -0.19759724 0.50145483 0.09703787
-0.3176127 0.008919052 -0.7935868 0.21711513 0.16351604 0.5528699 0.67580503 -1.2632349
0.37030423 -0.26848912 0.4586605 0.06669247 0.58906984 -0.34142137 0.4539919 -0.18467455
-0.42751428 -0.0689728 0.7790344 0.49071425 0.17921287 -0.29535004 0.39108 0.6190252
-0.6522479 -0.11862146 -0.5064199 0.109648176 0.18836659 -0.1494055 -0.01724327 0.2487436
-0.11635871 -0.48682046 0.49606895 -0.21667042 -0.027957218 0.09686903 -0.049435478 -0.5696516
0.36468324 -0.37133956 0.10860223 0.29567903 -0.2634091 -0.25039956 -0.30402586 -0.32773072
-0.25846308 -0.4405649 0.072091766 -0.73241305 -0.1900875 -0.09467456 0.073586255 1.2076677
-0.50386995 0.25414097 0.343575 0.18012895 -0.43425125 -0.41200253 -0.3721603 -0.24674076
0.3856851 -0.41825932 0.14793701 -0.29093283 -0.029629542 -0.49736536 0.96814275 -0.58951676
-0.124863945 -0.7667088 0.16065523 0.44398952 0.28986412 -0.63815486 0.1460717 -0.4221909
-0.39086297 0.46630493 0.015891857 0.22989883 -0.15328154 -0.24194968 0.11285191 0.12001638
0.18441339 -0.4151926 0.40895298 -0.1541558 -0.4043879 -0.45177525 0.7396512 0.16498949
-0.15621707 -0.3311214 -0.19705866 -0.6044663 -0.47518316 0.36839092 0.9927967 0.97637546
-0.21143214 0.30510432 0.30277854 0.5630612 1.0263612 0.5062353 1.518418 0.00060032145
0.10997775 1.2016513 -0.29105252 0.8181474 -0.3909618 0.031820122 -0.70583457 0.08234851
-0.19561304 -0.38403958 -0.50744045 -0.34709206 0.22848205 0.5754693 0.95962375 0.8778018
-0.12434809 -0.541652 0.68211913 0.23863435 -0.78067565 0.10446942 0.6041839 0.081999816
00000000: 7424 0b3f 8323 07c0 bd79 57bd b145 89be
00000010: e59e e8bd 604c 9ebd 1442 053f 5941 3ebf
00000020: 4b9a 183f cf20 f03e b0d6 7d3d 41bc 36bf
00000030: 5c82 73bf 8004 703f c6fc 60be 4617 993e
00000040: 9819 d53d 224c debd 1ead 263f c052 f83e
00000050: 2543 2ebe eff8 7cbf 6df6 5b3e 94d0 f9be
00000060: ac3b 13bf a94f 7d3e 0772 833f dfec cf3d
00000070: 314f 67be fd5d b3be efe8 d4be df9c 6d3f
00000080: 1013 2d3f 6080 9f3e de66 eebe 53f9 eebe
00000090: c350 273f 547e c1bd d8db 313e a476 b63d
000000a0: 23a8 913e f28b 923e d39c d53d 72ed d33e
000000b0: 3733 d33e 691d 173f 6493 f93e cbf8 27be
000000c0: c679 05bf 506c e83d 4eea bf3b 7940 37be
000000d0: 1edd eebd 0262 133d 96db fb3e cc43 533e
000000e0: d8fa 71be cf2a 87be a324 1fbe beee 81be
000000f0: 5d11 533f e059 2b3e d015 143f 3ca4 943e
00000100: e617 9d3e 5ce6 d23e b2db 12bf a456 cabd
00000110: c0f6 143e be83 1cbf 5b56 25bf 2030 a13e
00000120: 2260 d13e 5772 173e a049 513f d32f 17bc
00000130: 0b56 a8be ffda 353e b435 a93d a3f0 b1be
00000140: 9f71 b8be 83f7 e93f 3bc9 0abf 6359 603e
00000150: 1701 533f e83d 673d d840 c9bf 6487 593f
00000160: f045 5ebe bb95 0ebe 4eec 883f 4589 33bf
00000170: 6d78 66bf 3821 0fbf 8c76 493d 6d24 40bf
00000180: c59a a3be fa38 bf3f f45c 153f 6655 8ebd
00000190: fb1f 09bf 184a d3bd 4e79 84be 26c3 8fbe
000001a0: ecc3 19bf afc0 db3d dc17 01bf 1903 eabe
000001b0: bc16 0cbf c21e 9c3e 1f44 a8be b2cb 45be
000001c0: f25f 003f bd34 bc3e 0386 b33e 5a32 2ebf
000001d0: fe6a ddbe ee56 4abe 585f 003f cabb c63d
000001e0: 229e a2be 3721 123c 8128 4bbf 6e53 5e3e
000001f0: c070 273e e288 0d3f 8f01 2d3f aeb1 a1bf
00000200: 8498 bd3e 6877 89be 8dd5 ea3e 1096 883d
00000210: 48cd 163f c8ce aebe a071 e83e 531b 3dbe
00000220: 27e3 dabe 9d41 8dbd cc6e 473f e63e fb3e
00000230: 9483 373e 1f38 97be a33b c83e 6f78 1e3f
00000240: b8f9 26bf cfef f2bd bca4 01bf 398f e03d
00000250: 2ce3 403e c1fd 18be c241 8dbc a4b6 7e3e
00000260: 7a4d eebd 8840 f9be c0fc fd3e dade 5dbe
00000270: 8906 e5bc 4563 c63d db7c 4abd b0d4 11bf
00000280: c3b7 ba3e 3820 bebe d96a de3d 3e63 973e
00000290: 8fdd 86be 5f34 80be 47a9 9bbe 52cc a7be
000002a0: 4655 84be b991 e1be d9a4 933d 6c7f 3bbf
000002b0: 4ca6 42be bce4 c1bd 64b4 963d db94 9a3f
000002c0: 9ffd 00bf c41e 823e 10e9 af3e b973 383e
000002d0: 2e56 debe fff1 d2be cb8b bebe 9ca9 7cbe
000002e0: 8478 c53e 1626 d6be cd7c 173e 26f5 94be
000002f0: a7b9 f2bc aca6 febe 34d8 773f 92ea 16bf
00000300: abb8 ffbd 0747 44bf ce82 243e 9852 e33e
00000310: 1269 943e 1e5e 23bf d293 153e 6829 d8be
00000320: 311f c8be 85bf ee3e a42f 823c 996a 6b3e
00000330: d6f5 1cbe a8c1 77be e71e e73d 26cb f53d
00000340: ddd6 3c3e 2094 d4be 4962 d13e 05db 1dbe
00000350: ee0b cfbe 164f e7be c859 3d3f 01f3 283e
00000360: 5ef7 1fbe bf88 a9be bfc9 49be 4ebe 1abf
00000370: 354b f3be bc9d bc3e ed27 7e3f bef3 793f
00000380: ab81 58be a236 9c3e ca05 9b3e c724 103f
00000390: ce5f 833f a398 013f 855b c23f e45e 1d3a
000003a0: 043c e13d b6cf 993f d604 95be 1c72 513f
000003b0: 252c c8be d155 023d 93b1 34bf 56a6 a83d
000003c0: c94e 48be d6a0 c4be 9ee7 01bf 0db6 b1be
000003d0: 33f7 693e f551 133f e7a9 753f 9eb7 603f
000003e0: 36aa febd b5a9 0abf 5c9f 2e3f 905c 743e
000003f0: 5cda 47bf 10f4 d53d ccab 1a3f 85ef a73d

hidden_layers.2.bias f4 [20]
-0.17629501 0.31267807 0.017584667 -0.2733963 -0.15412278 0.053072594 -0.16106692 -0.018782863
-0.15762207 -0.15303063 -0.13782904 -0.021450318 -0.11381561 -0.053933527 0.031420607 0.28131488
0.13551348 -0.027113447 0.29912603 0.29041132
00000000: ae86 34be 5717 a03e b80d 903c 9afa 8bbe
00000010: 5dd2 1dbe a662 593d baee 24be 85de 99bc
00000020: ae67 21be 10b4 1cbe 0e23 0dbe 94b8 afbc
00000030: 2918 e9bd 67e9 5cbd e5b2 003d 8108 903e
00000040: 0cc4 0a3e 051d debc 0c27 993e cbb0 943e

output_layer.weight f4 [1, 20]
-1.7652781 -1.0129287 0.02578662 0.26697284 2.826457 -0.0022444888 -0.940582 -0.16394494
-1.0916048 -1.107909 0.34800342 -1.6482753 0.81212366 -0.45504528 -1.1231474 0.9845652
-1.9557636 2.435064 -0.14139469 -0.16305414
00000000: a2f4 e1bf a6a7 81bf 763e d33c aab0 883e
00000010: ace4 3440 4618 13bb fbc9 70bf 2fe1 27be
00000020: b5b9 8bbf f6cf 8dbf 812d b23e affa d2bf
00000030: 56e7 4f3f b2fb e8be 4bc3 8fbf 770c 7c3f
00000040: 7656 fabf 17d8 1b40 c5c9 10be aaf7 26be
