models/task_1/second_draft.pt (torch, 11458 bytes, 12 tensors)

input_layer.weight f4 [20, 2]
2.2903852 0.38818094 -0.14369905 -0.5627693 0.067114905 0.1800537 -0.51105887 1.0769795
0.1277694 -0.050662626 -0.46082735 -0.29767355 0.1095563 -0.26388222 2.3246672 0.9774822
-0.06272625 -0.018566383 -0.2520325 0.5342287 -0.21774113 -0.9782676 -0.5973927 0.8625433
-2.2868125 -0.29269025 -0.37817082 0.71928895 1.0319239 -0.22794978 -0.34845144 -0.06053131
-0.45770893 -0.47883618 -0.05365006 0.46907097 -1.2185751 0.22646485 1.6354437 -1.813297
00000000: ac95 1240 a7bf c63e d825 13be a611 10bf
00000010: 8a73 893d ff5f 383e c1d4 02bf 77da 893f
00000020: fbd5 023e 9d83 4fbd 90f1 ebbe ab68 98be
00000030: 0e5f e03d 921b 87be 59c7 1440 463c 7a3f
00000040: 9f76 80bd 8718 98bc 670a 81be 36c3 083f
00000050: 88f7 5ebe bf6f 7abf baee 18bf a3cf 5c3f
00000060: 235b 12c0 7fdb 95be 9b9f c1be 5223 383f
00000070: 1516 843f ab6b 69be 3a68 b2be aeef 77bd
00000080: d358 eabe 042a f5be 2ac0 5bbd 122a f03e
00000090: 45fa 9bbf 67e6 673e 3856 d13f 1e1a e8bf

input_layer.bias f4 [20]
0.11389592 0.8889889 -0.6294881 0.040529378 0.14380999 -0.11962163 0.1661214 -0.0073836753
-0.3563481 0.3647843 0.31664363 0.47605467 0.5194003 0.40345588 -0.5000754 0.08810107
-0.43441862 0.12520362 0.63611937 -0.33184594
00000000: 4442 e93d c794 633f 2226 21bf 2202 263d
00000010: ed42 133e 2ffc f4bd ba1b 2a3e c2f2 f1bb
00000020: 4273 b6be 02c5 ba3e 1d1f a23e 70bd f33e
00000030: 6bf7 043f c591 ce3e f104 00bf 556e b43d
00000040: 1e6c debe 6135 003e b8d8 223f b6e7 a9be

hidden_layers.0.weight f4 [20, 20]
0.3593999 -0.5390015 0.3537356 0.21624827 -0.39668888 0.025097094 0.049396344 0.42297006
-0.0623123 -0.025259547 -0.06597556 -0.31788737 -0.31121072 -0.21685608 0.3802689 -0.43277794
-0.15510073 0.09039601 -0.7547103 0.81885546 0.23430213 0.18168727 0.20547023 -0.28180298
-0.25412306 -0.040698152 0.044240564 -0.09739732 -0.06674269 -0.09326034 -0.13296875 -0.11028311
-0.3899029 0.12507118 -0.018720206 0.15082034 0.044988893 -0.061873827 0.31120333 0.228821
-0.5426649 -0.32047158 -0.0008746014 0.41124377 0.41908202 -0.07570466 0.16221043 -0.5850863
0.11160696 0.42557928 -0.1335379 0.9194841 0.32630274 0.5734022 -0.03139704 -0.26106095
0.26390126 0.54173934 0.20330662 -0.888749 -1.7751638 0.035521973 -0.5553635 0.41128656
1.021269 0.52593446 0.3173336 -2.0252647 0.10757257 0.46637923 0.48583573 1.6198803
1.8918787 0.917945 -1.0432469 0.13520293 0.76365834 0.25238708 1.0184802 -1.5985731
-0.3258257 -0.41140464 -0.5003563 0.15262303 0.25542608 -0.53012305 0.19799142 -0.23411916
0.31959844 0.19499849 -0.40995392 0.67003417 0.30118033 0.25612953 -0.27066943 -0.35417202
-0.14795013 0.4675073 0.08824247 -0.5205696 -0.029787974 0.64456266 0.32864892 -0.18921919
-0.057656918 0.35043442 -0.1168988 -0.29013914 -0.109923474 -0.8337788 0.970636 -0.27268293
-0.011682372 -0.4765043 0.19335996 0.97060096 0.25686687 -0.64221793 -0.06746203 0.59028006
0.17304242 -0.3047126 0.52234817 0.500461 -0.17977782 0.11109999 -0.30040202 0.6353909
0.35522452 -0.13675904 -0.3321945 -0.43238425 -0.007960665 -0.29692513 0.1735483 -0.03995242
0.20063308 -0.07047143 -0.24074131 0.33805108 1.1611278 0.76983505 0.45404005 -0.68882465
-0.7301023 0.13033912 -0.09747375 1.144924 -0.34433597 -0.71298957 -0.23234941 -1.4383776
-1.327122 -0.81360364 0.42007214 0.26999912 -0.49032357 -0.7709596 -0.4324331 1.2635208
0.30538598 -0.42336157 0.25857025 0.3995031 -0.10452456 -0.11704903 -0.09921584 0.17643473
0.28978077 -0.02587874 -0.3124845 -0.29894668 0.2625787 -0.08349584 0.23964389 0.096298575
-0.25369018 0.047365844 -0.34058714 0.12545995 -0.71963876 0.5495772 -0.107854135 -0.35043478
0.35903746 0.41692936 0.40328425 -1.1318026 -0.30794406 -0.14038575 0.81119365 0.31022787
0.6569026 0.24923211 -0.04720855 0.5914072 0.57748836 -0.28146386 0.42157575 0.18933739
-0.31380084 0.14644589 -0.021727644 -0.22312899 0.05466321 0.20244513 0.16077954 0.036218684
0.065876625 0.20184992 -0.31956363 0.050015952 -0.035521664 -0.019046165 -0.4608088 0.06849206
-0.057425804 0.22010282 0.48613912 -0.03615312 0.21924764 -0.13585955 0.16118635 0.09681389
-0.16526805 -0.0051003643 -0.0028529675 0.65170896 -0.21092352 0.1285981 0.019058194 -0.6994785
-0.32575318 -0.31199867 0.27558395 -0.08325516 -0.09400929 -0.02437849 -0.38492733 0.4666244
-0.3959709 0.2273932 -0.27719775 -0.18212788 0.3646538 0.23564813 0.04283118 -0.5341362
-0.22869256 0.079000644 0.44759324 0.23635042 0.23240015 0.00012871037 0.06936999 0.1632762
00000000: 4403 b83e 01fc 09bf d51c b53e 3070 5d3e
00000010: ce1a cbbe 6c98 cd3c d253 4a3d 888f d83e
00000020: 2f3b 7fbd 1ced cebc 321e 87bd 22c2 a2be
00000030: 0357 9fbe 850f 5ebe 9bb2 c23e 1295 ddbe
00000040: bad2 1ebe 8b21 b93d b234 41bf 83a0 513f
00000050: e6ec 6f3e 3a0c 3a3e ca66 523e 7b48 90be
00000060: 6b1c 82be 1bb3 26bd 9835 353d 3f78 c7bd
00000070: 64b0 88bd 47ff bebd f628 08be 1cdc e1bd
00000080: 5aa1 c7be a912 003e 1e5b 99bc a670 1a3e
00000090: 4646 383d 696f 7dbd 0b56 9f3e 0d50 6a3e
000000a0: 16ec 0abf da14 a4be 8245 65ba 8b8e d23e
000000b0: eb91 d63e 0b0b 9bbd 7e1a 263e 37c8 15bf
000000c0: 3192 e43d 87e5 d93e 29be 08be 4f63 6b3f
000000d0: 2711 a73e 7dca 123f 2f9a 00bd c8a9 85be
000000e0: 111e 873e 6eaf 0a3f 9c2f 503e 0e85 63bf
000000f0: 9138 e3bf 7d7f 113d 4d2c 0ebf 2794 d23e
00000100: f1b8 823f a4a3 063f 8d79 a23e f09d 01c0
00000110: 024f dc3d 42c9 ee3e 76bf f83e 3d58 cf3f
00000120: 1529 f23f 72fe 6a3f 1d89 85bf a372 0a3e
00000130: 1d7f 433f e138 813e 8f5d 823f 0b9e ccbf
00000140: a0d2 a6be a1a3 d2be 5a17 00bf 3649 1c3e
00000150: 35c7 823e 25b6 07bf 43be 4a3e efbc 6fbe
00000160: 68a2 a33e afad 473e 7be5 d1be 5c87 2b3f
00000170: 4f34 9a3e 6923 833e 2f95 8abe 0956 b5be
00000180: 3d80 17be 1e5d ef3e 78b8 b43d 0d44 05bf
00000190: e905 f4bc 0f02 253f ac44 a83e adc2 41be
000001a0: a929 6cbd 246c b33e a368 efbd 1e8d 94be
000001b0: 8f1f e1bd 8772 55bf 9a7b 783f 199d 8bbe
000001c0: 6b67 3fbc 5ff8 f3be 2700 463e 4e79 783f
000001d0: 0e84 833e 6568 24bf 8829 8abd 981c 173f
000001e0: 0832 313e 4a03 9cbe 9cb8 053f 361e 003f
000001f0: ad17 38be 6488 e33d 4bce 99be faa8 223f
00000200: fddf b53e 900a 0cbe 6615 aabe 7861 ddbe
00000210: 736d 02bc 9206 98be a5b6 313e 26a5 23bd
00000220: c272 4d3e 5353 90bd e484 76be 0815 ad3e
00000230: d69f 943f e913 453f f077 e83e d056 30bf
00000240: fce7 3abf 9e77 053e 51a0 c7bd df8c 923f
00000250: ce4c b0be 7c86 36bf 01ed 6dbe c21c b8bf
00000260: 22df a9bf 5448 50bf b213 d73e 533d 8a3e
00000270: b10b fbbe 9c5d 45bf df67 ddbe 0dbb a13f
00000280: 8d5b 9c3e d9c2 d8be 5263 843e ac8b cc3e
00000290: f910 d6bd 67b7 efbd ad31 cbbd 4eab 343e
000002a0: 255e 943e a7ff d3bc f8fd 9fbe 8a0f 99be
000002b0: b770 863e deff aabd 3565 753e 3038 c53d
000002c0: aee3 81be b002 423d 7061 aebe 9378 003e
000002d0: 3f3a 38bf 17b1 0c3f a1e2 dcbd 306c b3be
000002e0: c2d3 b73e c477 d53e 467b ce3e e8de 90bf
000002f0: d8aa 9dbe 48c1 0fbe 63aa 4f3f 30d6 9e3e
00000300: c52a 283f b436 7f3e c15d 41bd 7666 173f
00000310: 47d6 133f 081c 90be c7d8 d73e a9e1 413e
00000320: 81aa a0be e9f5 153e 2cfe b1bc ed7b 64be
00000330: 88e6 5f3d c74d 4f3e 64a3 243e 0b5a 143d
00000340: 53ea 863d bfb1 4e3e d89d a3be 87dd 4c3d
00000350: 2a7f 11bd b406 9cbc 22ef ebbe 9145 8c3d
00000360: 5237 6bbd a262 613e 3ae7 f83e 4b15 14bd
00000370: 7482 603e c41e 0bbe 090e 253e 5c46 c63d
00000380: 073c 29be f520 a7bb daf8 3abb 66d6 263f
00000390: 56fc 57be 38af 033e ee1f 9c3c 0611 33bf
000003a0: 1fc9 a6be 4abe 9fbe 5719 8d3e ae81 aabd
000003b0: f187 c0bd 66b5 c7bc 3215 c5be 65e9 ee3e
000003c0: b3bc cabe c3d9 683e ddec 8dbe bb7f 3abe
000003d0: e7b3 ba3e be4d 713e bf6f 2f3d 26bd 08bf
000003e0: 622e 6abe 17cb a13d f12a e53e d805 723e
000003f0: 4efa 6d3e 6df6 0639 da11 8e3d e031 273e

hidden_layers.0.bias f4 [20]
-0.42971897 0.07311721 0.037533723 0.31828398 0.6337189 -0.78646535 -0.9544064 -0.14719155
-0.392689 -0.014026244 -0.10042903 0.16997236 0.11898297 -0.14464287 -0.29931962 0.44838062
0.3416958 -0.62677497 0.2921835 0.47954562
00000000: 2004 dcbe 7abe 953d f6bc 193d 1ef6 a23e
00000010: 673b 223f cb55 49bf fa53 74bf 62b9 16be
00000020: 880e c9be 55ce 65bc bcad cdbd 3c0d 2e3e
00000030: 58ad f33d 431d 14be 6c40 99be 2592 e53e
00000040: c0f2 ae3e 5374 20bf 1399 953e 0187 f53e

hidden_layers.1.weight f4 [20, 20]
0.023891972 -0.2839781 0.20024478 0.30703685 0.35597676 0.1582395 -0.021253254 -0.5590799
-0.21566263 0.0095292255 -0.27400106 0.21375245 -0.013514387 0.09998653 -0.2888313 0.5842141
0.12148277 -0.2647664 -0.11903065 0.37146246 0.34575346 -0.65743655 0.3181923 1.172898
0.7926203 -1.0890772 0.3525801 -0.58497566 0.26146108 -0.33153346 -0.43911186 0.43034774
-0.63558203 0.06308482 0.023461737 0.7396231 0.63286084 -0.70800877 0.30066842 0.5593153
0.11067417 -0.034184527 0.30760464 -0.62869644 -0.2492914 0.9499863 -0.1544736 0.1359893
0.025373064 0.27840453 -0.7154436 0.39575335 0.2932506 -0.11398917 -0.45990744 0.6481066
0.73691946 -0.4462774 0.05583507 0.0069908905 0.6464459 -0.27395263 -0.5913434 -0.41266766
0.07160511 -0.32454774 0.30577615 0.17951581 0.31304815 -0.20539148 -0.12391326 0.30724764
-0.09879624 0.21656923 -0.12216388 0.13582201 0.39860508 0.39817625 -0.3668652 0.16035262
0.09338786 0.61210275 -0.56220084 -0.92317075 0.19036433 -0.23094328 0.56947535 0.43169278
0.11032308 -0.5207638 0.44549325 0.008199924 -0.2647138 0.18657573 0.10449668 -0.3665184
-0.5630065 0.59688896 -0.1960229 -0.047034636 0.8457906 -0.58419347 0.43115714 1.2601606
0.6356039 -0.5563293 0.56167334 -0.8044096 0.21305871 0.7112781 -0.3590467 0.11273626
-0.052975543 -0.2613768 -0.15181322 0.2771888 0.65177715 -0.2812348 0.5454001 0.23222096
0.31151524 -0.354115 0.27969187 0.4580976 0.33981544 -0.087102935 0.11324412 0.10450826
0.0857573 -0.13746859 -0.37885153 0.3143298 -0.17862628 -0.08872912 0.019357694 0.79312557
0.40729254 -0.24052344 -0.06898329 0.2833564 -0.2739648 0.35380945 -0.16528746 -0.3174068
-0.6242911 0.47659412 -0.19939303 0.26596478 -0.13766223 0.20669162 -0.05333529 -0.14382233
0.41629317 -0.21970749 -0.33661357 -0.036500327 -0.379926 0.22043747 -0.048415568 -0.37541956
-0.29871458 0.08025884 0.7717603 0.42108965 0.078825936 0.612708 -0.6447266 -0.24639136
-0.21756163 0.6779324 -0.6555727 -0.015016234 0.3765298 -0.32222942 -0.0652771 0.31670153
0.45677668 -0.8362083 0.38837475 0.15478614 0.093542926 -0.5425253 0.2858471 0.89740497
0.60342324 0.017743085 0.11410222 -0.66339636 -0.23690489 -0.029593246 -0.093597 0.0021967809
-0.34583014 0.047581617 -0.27263945 0.46062842 0.13554566 -0.3029858 0.062907495 0.23157232
-0.2211355 0.78408796 -0.6893106 -1.5145323 -0.16701493 -0.3759822 0.15782532 1.0762529
0.004888243 -0.80012745 0.66165423 0.032449428 -0.25420603 0.30389473 0.35897946 -0.45147797
-0.56422013 0.8350849 -0.36763194 -0.42837086 -0.052027654 -0.35544854 0.34217706 0.22926508
0.3774077 -0.13523085 0.06836344 -0.26846126 0.09963304 0.013454903 -0.03296473 0.05216119
-0.41061848 0.11706323 0.2028166 0.12284199 0.0048189173 -0.08610306 -0.22953884 0.37873298
-0.067210905 0.30566397 -0.02707018 0.035456758 -0.17409147 -0.010010795 0.076720625 0.1674723
-0.21939602 0.3247078 -0.26512283 0.0185258 0.29563725 0.18024594 0.0069916705 0.0785515
00000000: 19b9 c33c 9465 91be f80c 4d3e ef33 9d3e
00000010: 9642 b63e 8909 223e 4e1b aebc dc1f 0fbf
00000020: aad6 5cbe 7820 1c3c de49 8cbe ece1 5a3e
00000030: 736b 5dbc bdc5 cc3d b2e1 93be 0e8f 153f
00000040: f5cb f83d 768f 87be 57c6 f3bd 5430 be3e
00000050: 9906 b13e c34d 28bf 1aea a23e 8621 963f
00000060: 2ae9 4a3f e266 8bbf 6185 b43e f7c0 15bf
00000070: 3ade 853e c1be a9be 45d3 e0be 8a56 dc3e
00000080: 81b5 22bf 9d32 813d d432 c03c f157 3d3f
00000090: 2b03 223f 1040 35bf 36f1 993e 4a2f 0f3f
000000a0: 24a9 e23d 1305 0cbd 5b7e 9d3e 40f2 20bf
000000b0: 3f46 7fbe 4d32 733f 542e 1ebe c740 0b3e
000000c0: 2cdb cf3c 0a8b 8e3e 5027 37bf 2fa0 ca3e
000000d0: f124 963e 2773 e9bd fd78 ebbe 50ea 253f
000000e0: c1a6 3c3f 797e e4be 50b3 643d d713 e53b
000000f0: 7a7d 253f 8543 8cbe 4862 17bf 2d49 d3be
00000100: b3a5 923d 1f2b a6be b18e 9c3e fed2 373e
00000110: d947 a03e 2552 52be 3cc6 fdbd 904f 9d3e
00000120: af55 cabd 53c4 5d3e 0e31 fabd ed14 0b3e
00000130: f715 cc3e c2dd cb3e c1d5 bbbe 7a33 243e
00000140: 2242 bf3d c4b2 1c3f 65ec 0fbf eb54 6cbf
00000150: deee 423e 657c 6cbe 23c9 113f d606 dd3e
00000160: 11f1 e13d c750 05bf b117 e43e f958 063c
00000170: 9188 87be b50d 3f3e 5b02 d63d 4da8 bbbe
00000180: 3221 10bf b7cd 183f 3aba 48be 64a7 40bd
00000190: bc85 583f b48d 15bf a1c0 dc3e f14c a13f
000001a0: f0b6 223f 996b 0ebf d3c9 0f3f caed 4dbf
000001b0: 102c 5a3e 5216 363f f8d4 b7be 45e2 e63d
000001c0: e2fc 58bd 2ed3 85be ed74 1bbe b1eb 8d3e
000001d0: deda 263f 02fe 8fbe 579f 0b3f 55cb 6d3e
000001e0: ed7e 9f3e 904e b5be c633 8f3e c58b ea3e
000001f0: 4afc ad3e 0663 b2bd 88ec e73d 6d08 d63d
00000200: 86a1 af3d 91c4 0cbe d4f8 c1be d6ef a03e
00000210: cfe9 36be 9db7 b5bd 0794 9e3c 470a 4b3f
00000220: a688 d03e c74b 76be 1c47 8dbd 1714 913e
00000230: 1d45 8cbe 8326 b53e 1e41 29be 2583 a2be
00000240: 8bd1 1fbf 2504 f43e b02d 4cbe 892c 883e
00000250: 54f7 0cbe f8a6 533e 1b76 5abd 2946 13be
00000260: 6124 d53e 00fb 60be 9d58 acbe 5e81 15bd
00000270: a985 c2be 5cba 613e 674f 46bd fe36 c0be
00000280: 1ef1 98be bf5e a43d 1592 453f 1099 d73e
00000290: 7e6f a13d 6eda 1c3f cd0c 25bf 044e 7cbe
000002a0: 7ac8 5ebe fa8c 2d3f 9dd3 27bf a606 76bc
000002b0: 84c8 c03e 41fb a4be 00b0 85bd b426 a23e
000002c0: a2de e93e bf11 56bf 0ed9 c63e 4280 1e3e
000002d0: 6f93 bf3d f0e2 0abf 8d5a 923e 55bc 653f
000002e0: f279 1a3f f259 913c 6dae e93d 58d4 29bf
000002f0: 3297 72be 896d f2bc c9af bfbd def7 0f3b
00000300: a610 b1be f1e4 423d 6697 8bbe 7dd7 eb3e
00000310: 7bcc 0a3e f420 9bbe a5d5 803d 4b21 6d3e
00000320: 5871 62be fdb9 483f a976 30bf 32dc c1bf
00000330: f605 2bbe bd80 c0be f69c 213e a8c2 893f
00000340: 8e2d a03b 27d5 4cbf 2c62 293f b1e9 043d
00000350: 4b27 82be 1798 9b3e 28cc b73e 1f28 e7be
00000360: bb70 10bf 20c8 553f 413a bcbe 6d53 dbbe
00000370: f31a 55bd 5afd b5be d531 af3e 77c4 6a3e
00000380: 953b c13e f579 0abe 2202 8c3d c173 89be
00000390: 680c cc3d f471 5c3c 0606 07bd f9a6 553d
000003a0: 963c d2be d9be ef3d 28af 4f3e 9594 fb3d
000003b0: 02e8 9d3b cd56 b0bd 3b0c 6bbe 4ae9 c13e
000003c0: dfa5 89bd fd7f 9c3e 48c2 ddbc 1b3b 113d
000003d0: 0945 32be 5104 24bc b41f 9d3d dc7d 2b3e
000003e0: 5aa9 60be 1a40 a63e 2ebe 87be 6bc3 973c
000003f0: c45d 973e 6492 383e 621a e53b 9cdf a03d

hidden_layers.1.bias f4 [20]
0.5147743 1.0602992 -0.6852647 0.079963095 0.013868472 0.18160789 0.7541403 -0.6120616
0.0545037 0.20206577 -0.106600635 0.7431797 -0.008323213 -0.88335407 0.18320882 0.35880917
-0.42251334 0.40874392 0.104719035 0.4180866
00000000: 40c8 033f e2b7 873f 826d 2fbf b1c3 a33d
00000010: 9638 633c 6bf7 393e 570f 413f 12b0 1cbf
00000020: 463f 5f3d 54ea 4e3e 6f51 dabd 0641 3e3f
00000030: 165e 08bc 7e23 62bf 189b 3b3e d6b5 b73e
00000040: ab53 d8be e246 d13e ef76 d63d 720f d63e

hidden_layers.2.weight f4 [20, 20]
0.027414678 0.008879816 -0.064258404 0.115740694 -0.084527284 -0.027443966 0.09761032 0.31323105
0.08564142 -0.0549469 -0.3290581 -0.09006145 -0.06513847 -0.16363735 -0.064196244 -0.12918839
-0.28176916 -0.06804648 0.05826089 0.3072724 -0.5975439 -0.10125553 0.13680874 0.1582915
0.5004819 -0.8754974 -0.19555421 0.07343245 0.091285534 -0.93897986 0.8620266 -0.35244167
0.32842538 0.7605842 0.29853782 0.059064277 0.29896957 -0.25579277 -0.15128534 0.2666581
0.30515757 -0.7290534 0.40077794 -0.10028078 -0.20721346 -0.39124376 0.05669958 0.4412713
0.2030716 -0.0068595405 0.0433463 0.05965816 -0.21969111 -0.13434789 -0.5401626 -0.3212731
-0.18725425 -0.46454027 -0.3825777 -0.20420155 0.19232999 0.13365662 -0.4009271 -0.49818525
-0.0024298872 -0.24018022 0.17716223 -0.17270222 0.31247997 0.30202028 0.04841487 0.23961984
0.17381667 0.15051742 -0.042013586 0.06928818 -0.29759803 -0.23428875 0.18161404 0.34107554
0.146235 -0.4705094 0.4606384 -0.26901186 0.027140245 -0.3803159 -0.34495413 0.10522212
0.085674234 0.0018017798 -0.24054137 -0.09497386 -0.14691274 -0.34103268 -0.4004854 -0.15490422
-0.14647685 -0.11970596 -0.5177071 -0.29523742 -0.5972099 0.046846576 -0.35950252 -0.12075539
0.63225996 0.48520327 -0.19902585 0.061410155 -0.45746392 -0.19277373 0.5876035 -0.3496685
0.015019756 0.071322404 0.14721796 -0.085795045 0.5277309 0.13384444 0.06807294 0.16425103
0.10544772 -0.64765066 0.22625668 -0.25700197 0.14425205 -0.68905747 0.11351057 0.26110598
0.5516449 -0.0966037 -0.17768016 0.08058437 -0.33096686 0.1856352 -0.13651748 -0.23376241
-0.38649866 -0.4404701 0.039528746 0.20368709 0.21034107 -0.25577924 0.6908021 0.48066083
-0.104022086 0.6539277 -0.12471906 0.10224196 0.039294433 0.30381495 -0.41617283 0.07260052
0.02863158 -0.22144099 0.05073875 -0.07335347 0.055128403 -0.027791435 0.17783178 -0.77491474
-0.603858 0.17076816 0.0088892905 -0.34407672 0.33286548 0.023017714 -0.3850286 -0.10217497
-0.038088202 -0.57016295 0.47450402 -0.33765772 -0.018862959 0.27614665 0.49782974 0.118040316
0.3190908 -0.15682505 -0.22921765 0.25789878 0.037761357 0.10591964 -0.33422527 0.38898987
0.18176447 0.52166206 0.045540977 -0.24968486 -0.4670725 0.20169592 0.08545421 0.1561635
0.14642423 -0.094535135 -0.00078816497 -0.05167148 0.23472017 0.5044399 0.022428539 0.2579336
0.047805414 -0.06966385 -0.1674187 0.18504196 -0.115508944 0.45309162 0.19965993 -0.250604
-0.20647423 0.30698892 -0.32916734 0.4501645 0.10467373 -0.47989565 -0.019682419 -0.29161048
-0.21251608 0.18090118 -0.07490456 0.19478521 0.06578351 0.30284753 -0.41660318 -0.050541803
0.12815289 0.32763657 0.2986273 -0.42299315 -0.3762229 0.06543109 0.2872279 0.23735191
0.2100502 0.39423427 0.39075002 0.282454 0.14675039 0.20621115 0.24073178 0.06248044
0.4939879 -0.057718966 0.21208194 0.34465608 0.15796024 0.5936543 0.0359177 -0.15494923
-0.14218412 0.5637124 -0.4054819 0.09716269 -0.08252231 -0.27084398 -0.29479295 -0.43938327
00000000: bf94 e03c a67c 113c e999 83bd 7509 ed3d
00000010: a41c adbd 2bd2 e0bc ebe7 c73d d25f a03e
00000020: c564 af3d 0010 61bd 4e7a a8be 2372 b8bd
00000030: 5167 85bd 8d90 27be 5279 83bd f649 04be
00000040: 0c44 90be f45b 8bbd f9a2 6e3d cf52 9d3e
00000050: a3f8 18bf 0f5f cfbd 9717 0c3e 2b17 223e
00000060: 951f 003f 9920 60bf 5d3f 48be c163 963d
00000070: e9f3 ba3d fc60 70bf c6ad 5c3f 3c73 b4be
00000080: 5f27 a83e a5b5 423f f3d9 983e 62ed 713d
00000090: 8a12 993e 45f7 82be 8bea 1abe 6987 883e
000000a0: 9d3d 9c3e 3ea3 3abf c432 cd3e 0260 cdbd
000000b0: c42f 54be 1a51 c8be d23d 683d 50ee e13e
000000c0: 00f2 4f3e ffc5 e0bb e48b 313d 1d5c 743d
000000d0: b5f6 60be 7e92 09be 1948 0abf e87d a4be
000000e0: 94bf 3fbe 39d8 edbe 39e1 c3be 361a 51be
000000f0: 27f2 443e 48dd 083e 5146 cdbe 2312 ffbe
00000100: be3e 1fbb cef1 75be 046a 353e dad8 30be
00000110: 60fd 9f3e 67a2 9a3e ac4e 463d e75e 753e
00000120: fffc 313e 3d21 1a3e 7016 2cbd f6e6 8d3d
00000130: c55e 98be 64e9 6fbe 08f9 393e 74a1 ae3e
00000140: a1be 153e 9ce6 f0be ccd8 eb3e ecbb 89be
00000150: 3855 de3c c4b8 c2be d49d b0be b27e d73d
00000160: f975 af3d b329 ec3a 7a50 76be a881 c2bd
00000170: 4b70 16be d69b aebe 6c0c cdbe 369f 1ebe
00000180: 07fe 15be 6628 f5bd 7488 04bf 5c29 97be
00000190: bfe2 18bf 32e2 3f3d b710 b8be 9a4e f7bd
000001a0: cadb 213f 906c f83e 6fcd 4bbe 3789 7b3d
000001b0: b638 eabe 7a66 45be 2f6d 163f c007 b3be
000001c0: 6c15 763c 7b11 923d 4ec0 163e 50b5 afbd
000001d0: 5f19 073f 840e 093e d369 8b3d 6c31 283e
000001e0: f9f4 d73d 6fcc 25bf d5af 673e c395 83be
000001f0: cfb6 133e 1266 30bf 3b78 e83d afaf 853e
00000200: 9a38 0d3f 29d8 c5bd caf1 35be 6b09 a53d
00000210: 7d74 a9be 2717 3e3e 3dcb 0bbe 6a5f 6fbe
00000220: 27e3 c5be 4c85 e1be e5e8 213d 5993 503e
00000230: a663 573e 7ff5 82be 68d8 303f 2d19 f63e
00000240: 8809 d5bd ce67 273f b56c ffbd 3c64 d13d
00000250: 33f3 203d a28d 9b3e 9b14 d5be 95af 943d
00000260: c68c ea3c 6dc1 62be 6fd3 4f3d 583a 96bd
00000270: 52ce 613d ddaa e3bc 8919 363e d060 46bf
00000280: 7096 1abf d9dd 2e3e 63a4 113c d32a b0be
00000290: 586d aa3e a58f bc3c 7822 c5be 1c41 d1bd
000002a0: 6002 1cbd 33f6 11bf 31f2 f23e 79e1 acbe
000002b0: 7e86 9abc 1863 8d3e 8ae3 fe3e 1fbf f13d
000002c0: df5f a33e bf96 20be 08b8 6abe 4f0b 843e
000002d0: a7ab 1a3d 65ec d83d 931f abbe ae29 c73e
000002e0: 7720 3a3e a58b 053f 2d89 3a3d 63ad 7fbe
000002f0: 2024 efbe 6089 4e3e 9e02 af3d 53e9 1f3e
00000300: 3cf0 153e a39b c1bd db9c 4eba 79a5 53bd
00000310: 7c5a 703e f922 013f 0ebc b73c df0f 843e
00000320: 9ccf 433d ecab 8ebd cf6f 2bbe a47b 3d3e
00000330: f48f ecbd a0fb e73e a773 4c3e 2b4f 80be
00000340: fb6d 53be a72d 9d3e 9f88 a8be f67b e63e
00000350: 2e5f d63d e2b4 f5be 063d a1bc f84d 95be
00000360: d19d 59be 293e 393e 9067 99bd c675 473e
00000370: 81b9 863d d50e 9b3e 034d d5be ec04 4fbd
00000380: 833a 033e fbbf a73e ade5 983e 8f92 d8be
00000390: 4aa0 c0be bc00 863d 890f 933e 610c 733e
000003a0: 6617 573e 13d9 c93e 6310 c83e d09d 903e
000003b0: bc45 163e 0429 533e 6482 763e 7deb 7f3d
000003c0: fbeb fc3e b96a 6cbd 022c 593e c376 b03e
000003d0: 54c0 213e baf9 173f 701e 133d 03ab 1ebe
000003e0: b798 11be 754f 103f 539b cfbe 3bfd c63d
000003f0: 7501 a9bd 10ac 8abe 1aef 96be d8f6 e0be

hidden_layers.2.bias f4 [20]
0.0064524435 0.5387762 -0.5584597 0.3278845 -0.89253706 0.08531932 -0.31837302 -0.44233796
-0.022025798 0.7213969 0.52868783 1.2270329 0.46730927 1.4255043 -0.71019155 -0.43485475
0.22489655 0.16373694 0.8865123 1.2169964
00000000: 056f d33b 3ded 093f 37f7 0ebf 7ae0 a73e
00000010: 4f7d 64bf e5bb ae3d ca01 a3be 1f7a e2be
00000020: 726f b4bc 78ad 383f 1658 073f 6a0f 9d3f
00000030: 2943 ef3e ed76 b63f 1dcf 35bf 48a5 debe
00000040: 484b 663e a8aa 273e 78f2 623f 8ac6 9b3f

hidden_layers.3.weight f4 [20, 20]
0.13523234 -0.15058807 0.038272947 0.529975 -0.13006315 0.06834223 0.035566922 -0.21952438
-0.043743975 0.07536021 0.20905669 0.34195477 -0.02009248 0.056274522 0.14895223 -0.17873707
0.25679597 0.19691412 -0.1516468 -0.36591598 0.025831647 -0.36463803 0.04950449 0.085238785
0.09382212 0.06664843 -0.0025427083 0.0011879572 -0.57998425 0.24204758 -0.15486364 0.061910618
0.2843014 0.12912433 -0.0603878 -0.19547655 0.12229188 -0.16307051 0.57151294 0.1806958
-0.14304005 0.41070548 0.2061389 0.11287531 -0.034603905 -0.51074135 0.66432446 0.30941188
0.015937699 -0.36613408 -0.08177102 0.03375102 0.08406107 0.10920799 0.2559462 0.44062406
-0.4615145 0.360871 -0.57391727 -0.022190934 0.17569286 -0.2372982 -0.30960777 0.1594674
-0.18595392 -0.22626105 -0.59480023 0.16566522 0.068268485 0.48710763 0.14605895 0.18794817
0.18066478 -0.18682265 -0.06050128 -0.13643797 0.5074855 0.24198131 0.397606 -0.2564286
0.10237696 0.032805245 0.048731465 -0.010735304 -0.18838036 -0.063125975 -0.28241575 -0.2612786
0.30291894 0.29437187 0.073581405 0.21973568 0.13805874 0.040269677 0.047147684 0.12680559
0.32480207 -0.21939859 -0.05452096 0.0070552877 -0.05153182 -0.11403707 0.16689864 0.04756826
-0.24162157 0.043612342 0.133291 -0.26245207 -0.60634845 0.15059142 0.20781621 0.143742
0.18635704 0.3121983 -0.2635306 -0.35030937 -0.24830674 -0.25124753 0.23090021 0.76783764
-0.054100305 -0.18004388 0.27956796 -0.09393665 0.49651313 0.11021088 0.6398481 0.23249172
-0.40705705 -0.33190435 0.45559737 -0.2809801 0.22230992 -0.2299413 -0.106194764 -0.27003133
-0.4218953 0.21181442 0.36069444 0.6864402 -0.10432098 0.06120516 0.015089759 -0.064862974
0.4661201 -0.08299077 0.021058254 0.04624575 0.01133928 -0.16938803 -0.022701552 -0.26769137
0.35291374 -0.18913233 0.1740676 -0.40446424 -0.10379506 0.0682083 0.13256116 0.1387501
-0.045093924 0.49805295 0.37972677 -0.04469642 -0.07447985 -0.74800044 0.69148356 0.3083315
0.088492416 -0.087084584 0.2999792 -0.22086613 -0.10140987 -0.012800296 0.2316051 0.15399025
-0.59378856 0.30044034 -0.65349424 0.09508225 -0.13687833 -0.22544442 0.73589087 -0.20144859
0.7833311 -0.2746983 0.6752086 0.12770526 0.014503158 -0.5877848 0.21705346 -0.52998596
0.31043124 -0.28465328 0.38959107 -0.5433931 -0.7243368 0.103103764 0.14907384 0.5347113
-0.17949371 0.051428933 0.15649655 -0.4617401 0.17580518 -0.2751489 -0.042981435 0.5988925
0.17447534 0.088695064 0.38061398 -0.2538836 -0.09927967 -0.08155396 0.4674391 -0.15847723
-0.14091504 0.056812078 0.07012017 0.12974863 -0.27979493 0.3249294 -0.41199845 -0.1090972
-0.20132773 0.46254927 -0.44458243 -0.69206727 -0.0045672604 0.537438 -0.22749609 0.5965682
-0.023615975 0.4045324 -0.39032185 -0.19048353 0.31514376 -0.56288046 0.9015173 -0.084856525
-0.046140183 0.042503502 -0.27407575 0.14697535 -0.2539741 0.48304796 -0.2659387 -0.7257452
0.26098928 0.20373215 -0.15709524 0.13137336 -0.26391205 0.092997506 -0.80484235 0.3244995
00000000: 597a 0a3e c233 1abe 18c4 1c3d 71ac 073f
00000010: 462f 05be 03f7 8b3d 9fae 113d 00cb 60be
00000020: e22c 33bd 7456 9a3d f512 563e b214 af3e
00000030: fc98 a4bc 1d80 663d ef86 183e da06 37be
00000040: c37a 833e dba3 493e 4c49 1bbe 5759 bbbe
00000050: e49c d33c d6b1 babe 38c5 4a3d ac91 ae3d
00000060: d025 c03d f97e 883d 91a3 26bb 3bb5 9b3a
00000070: d979 14bf 52db 773e 9394 1ebe fd95 7d3d
00000080: f48f 913e 2b39 043e 3359 77bd 012b 48be
00000090: 2a74 fa3d f5fb 26be ac4e 123f 5208 393e
000000a0: 1779 12be fd47 d23e 1316 533e 2c2b e73d
000000b0: d3bc 0dbd f2bf 02bf 2b11 2a3f 3c6b 9e3e
000000c0: c78f 823c ed75 bbbe 9177 a7bd 823e 0a3d
000000d0: 3628 ac3d 70a8 df3d 610b 833e 7a99 e13e
000000e0: a14b ecbe 15c4 b83e 3eec 12bf c3c9 b5bc
000000f0: d4e8 333e 4dfe 72be e984 9ebe 6c4b 233e
00000100: b46a 3ebe fab0 67be d444 18bf 25a4 293e
00000110: 59d0 8b3d 2c66 f93e 7a90 153e 7c75 403e
00000120: 3000 393e 704e 3fbe 31d0 77bd 65b6 0bbe
00000130: 92ea 013f f3c9 773e 0393 cb3e 9c4a 83be
00000140: 03ab d13d cb5e 063d a59a 473d 21e3 2fbc
00000150: c8e6 40be 3148 81bd cc98 90be 4fc6 85be
00000160: 3118 9b3e e9b7 963e d9b1 963d 6402 613e
00000170: 455f 0d3e d1f1 243d ee1d 413d 53d9 013e
00000180: 754c a63e 06aa 60be 5f51 5fbd 0b30 e73b
00000190: 0813 53bd 448c e9bd 7ae7 2a3e f0d6 423d
000001a0: a56b 77be dba2 323d 707d 083e 1e60 86be
000001b0: a739 1bbf a334 1a3e c6cd 543e 1a31 133e
000001c0: 61d4 3e3e 75d8 9f3e 7ced 86be c05b b3be
000001d0: 1f44 7ebe 84a3 80be 1b71 6c3e 0291 443f
000001e0: 4898 5dbd 6c5d 38be 8823 8f3e dc61 c0bd
000001f0: f836 fe3e 3eb6 e13d 16cd 233f 4f12 6e3e
00000200: c869 d0be 5eef a9be 0f44 e93e a0dc 8fbe
00000210: 36a5 633e bb75 6bbe a47c d9bd 8c41 8abe
00000220: a902 d8be e1e5 583e f1ac b83e 8cba 2f3f
00000230: 3da6 d5bd 43b2 7a3d 093b 773c e1d6 84bd
00000240: 4ba7 ee3e 11f7 a9bd 5c82 ac3c 2f6c 3d3d
00000250: 63c8 393c 0e74 2dbe 9bf8 b9bc d80e 89be
00000260: 1cb1 b43e e8ab 41be c73e 323e f015 cfbe
00000270: 8192 d4bd cbb0 8b3d 1dbe 073e 8214 0e3e
00000280: 68b4 38bd cc00 ff3e 8c6b c23e 9813 37bd
00000290: e488 98bd f57c 3fbf 1105 313f a0dd 9d3e
000002a0: 833b b53d 6759 b2bd e096 993e bb2a 62be
000002b0: faaf cfbd 55b8 51bc e329 6d3e 9faf 1d3e
000002c0: 8702 18bf 51d3 993e 664b 27bf 7cba c23d
000002d0: d529 0cbe e7da 66be 5863 3c3f 8a48 4ebe
000002e0: 6388 483f 41a5 8cbe 79da 2c3f 2bc5 023e
000002f0: a79e 6d3c 1179 16bf 4343 5e3e 29ad 07bf
00000300: d8f0 9e3e 13be 91be 7b78 c73e cf1b 0bbf
00000310: 236e 39bf 1128 d33d d0a6 183e d7e2 083f
00000320: 33cd 37be 25a7 523d a240 203e 3369 ecbe
00000330: 4606 343e 51e0 8cbe 4d0d 30bd 0551 193f
00000340: aaa9 323e c2a5 b53d d6df c23e 08fd 81be
00000350: 2453 cbbd c305 a7bd 2d54 ef3e db47 22be
00000360: 084c 10be c8b3 683d 2a9b 8f3d d3dc 043e
00000370: 4841 8fbe 255d a63e 76f1 d2be 5a6e dfbd
00000380: db28 4ebe 42d3 ec3e 4fa0 e3be 522b 31bf
00000390: f5a8 95bb 8995 093f bcf4 68be b2b8 183f
000003a0: 4a76 c1bc df1e cf3e 44d8 c7be 1d0e 43be
000003b0: 865a a13e ef18 10bf d6c9 663f 42c9 adbd
000003c0: 7dfd 3cbd 2718 2e3d a853 8cbe b580 163e
000003d0: e508 82be 1052 f73e 1e29 88be 70ca 39bf
000003e0: 63a0 853e 299f 503e 93dd 20be bd86 063e
000003f0: 7b1f 87be 7a75 be3d 260a 4ebf cc24 a63e

hidden_layers.3.bias f4 [20]
0.5719875 0.69218695 -0.60014963 0.49678206 0.32730034 0.36624444 -1.5852098 -1.1360384
-0.2897332 -1.960893 -0.6700823 0.75387406 0.72451967 0.3036685 -1.8020499 -0.28819132
-0.06579638 -0.23334232 0.8033842 -0.5839882
00000000: c66d 123f 2a33 313f 68a3 19bf 385a fe3e
00000010: e993 a73e 6484 bb3e 28e8 cabf b569 91bf
00000020: e957 94be 8bfe fabf 838a 2bbf e4fd 403f
00000030: 1f7a 393f 707a 9b3e 92a9 e6bf d08d 93be
00000040: 41c0 86bd 4af1 6ebe 96aa 4d3f 4080 15bf

output_layer.weight f4 [2, 20]
-1.0153936 -0.75247127 -0.13734494 1.5308933 0.40537965 -1.3928487 0.20562525 -0.43081045
-0.10732525 0.9685081 0.93483335 -0.3592843 0.03985291 0.5786285 0.73857224 -0.4734124
0.098394245 0.13942915 -2.4883466 -0.035548266 -0.41474944 -0.7337444 0.93011314 -0.01614893
1.4705013 0.5514892 -1.6640711 -0.44215965 2.4956994 -1.0755956 1.4198709 -2.4748032
-0.60918564 1.1642842 -1.1680073 -1.3268133 -0.14831102 -0.2263829 -0.36166742 -1.3510938
00000000: 6bf8 81bf f5a1 40bf 27a4 0cbe 50f4 c33f
00000010: ec8d cf3e de48 b2bf 6d8f 523e 3093 dcbe
00000020: 57cd dbbd 26f0 773f 3d51 6f3f 1df4 b7be
00000030: ce3c 233d ff20 143f 1213 3d3f 1c63 f2be
00000040: ec82 c93d 84c6 0e3e 1241 1fc0 0f9b 11bd
00000050: 0a5a d4be acd6 3bbf e51b 6e3f c34a 84bc
00000060: 6339 bc3f 652e 0d3f 4800 d5bf c062 e2be
00000070: 8ab9 1f40 1ead 89bf 54be b53f 2d63 1ec0
00000080: 97f3 1bbf 4407 953f 4381 95bf 05d5 a9bf
00000090: d8de 17be ebd0 67be 792c b9be a4f0 acbf

output_layer.bias f4 [2]
6.7088223 4.6674633
00000000: acae d640 dc5b 9540
